saved models/MNIST_Model.pth (torch, 19184 bytes, 6 tensors)

conv_layer_1.0.weight f4 [10, 1, 2, 2]
000000 68 f2 4f be c0 4e 05 be dc 82 d1 be b8 e6 32 3e
       -0.20307314 -0.13018322 -0.4092015 0.17470825
000010 e3 8c 55 be 3e 03 11 3f 78 cf 72 3e 38 dc 76 3f
       -0.20854525 0.5664557 0.23711956 0.9642978
000020 fe 11 95 3c ad a0 c2 be 96 a3 d1 3d e7 cd d5 bd
       0.018197056 -0.3801321 0.1023628 -0.104396634
000030 0d 1b b3 3f 7c 91 56 bf ff a2 00 bf 7c d8 7f bf
       1.399263 -0.8381574 -0.5024871 -0.99939704
000040 e2 15 c3 3f a0 65 43 c0 a7 19 b2 3f b2 0d a0 3f
       1.5241053 -3.0530777 1.3914078 1.250418
000050 ba bf f8 3e d5 f4 04 40 71 67 de bf dc 09 1f bd
       0.48583776 2.0774434 -1.7375318 -0.038827762
000060 81 b6 d2 be 81 54 1f bf 79 e0 16 bf 81 85 83 3e
       -0.41154864 -0.6223832 -0.5893627 0.25687793
000070 12 88 5d 3f 63 5e 91 3f 1c 49 35 3f 3e ed 83 bf
       0.8653575 1.135693 0.7081468 -1.0306776
000080 ab 4e 9d 3f 40 21 b5 3f 9f 45 0e c0 91 95 be bf
       1.2289633 1.4150772 -2.2229993 -1.4889394
000090 00 ac 7e 3f a0 f0 2d bf 05 7b cc 3f db d9 05 c0
       0.994812 -0.6794529 1.5975043 -2.0914218

conv_layer_1.0.bias f4 [10]
000000 a4 cd 4a be 95 65 59 3d ba 1d f8 bd 24 b6 98 3c
       -0.19805008 0.05307539 -0.12115045 0.018641539
000010 17 27 88 bf b8 9c 88 be 0f 2e 5b 3f 68 82 0b be
       -1.0636929 -0.26682067 0.85617155 -0.13623965
000020 ff e8 0e bd 37 8e de bd
       -0.03489017 -0.10866969

conv_layer_2.0.weight f4 [10, 10, 2, 2]
000000 f8 3d d5 bc a8 c9 17 3d a0 f8 a6 bd 6e b2 fc 3d
       -0.026030526 0.03705755 -0.0815289 0.1233872
000010 eb 47 15 3f c9 d1 55 3e de 01 46 3f 79 2a 35 bf
       0.58312863 0.20880808 0.773466 -0.70767933
000020 3f 92 1c 3d ad 7f ee 3d 43 d3 11 3e a9 8a cf 3d
       0.03822541 0.11645446 0.14240746 0.10133869
000030 c1 03 74 3d 7e 6d fe 3e 81 50 c1 3e 89 2f 88 be
       0.059573893 0.4969291 0.37756732 -0.26598766
000040 eb 03 58 be b7 62 21 bf 27 85 91 bd d0 bf 5d 3f
       -0.21095245 -0.6304125 -0.07105475 0.8662081
000050 b7 a5 99 be e5 fd d2 be ea 2a a1 bd db bd 3c 3e
       -0.30009243 -0.4120933 -0.07869513 0.18431799
000060 49 99 74 bf 02 a1 91 be 7d 71 21 bf 65 c2 33 bf
       -0.95546395 -0.28443152 -0.63063794 -0.702185
000070 4b 91 c2 3e f3 ab ab 3f 25 57 c5 be 1a 11 37 3e
       0.38001475 1.341185 -0.38543049 0.17877617
000080 ac 36 7d bf d0 21 63 3e 39 ac 2a bf 39 7b 0e be
       -0.9891155 0.22180867 -0.6666904 -0.13914193
000090 14 5e e8 3e 18 7f b1 be 7e 1e b0 bc 74 48 b4 3e
       0.45384276 -0.34667277 -0.021498915 0.35211527
0000a0 40 b5 fd 3b fc 2a 43 3d 66 01 92 bd 32 eb bf 3d
       0.007742554 0.047648415 -0.07129173 0.09371032
0000b0 ae 80 98 bf c2 73 43 3f df b1 94 3d 18 85 ba 3e
       -1.191427 0.7634851 0.07260489 0.36429667
0000c0 6d 29 5e 3d 6e 1a af 3d 0c 1e 2e bd 66 6a 04 bd
       0.054238725 0.08549963 -0.042509124 -0.032328032
0000d0 65 88 c4 bc fa 1c 57 be 75 90 34 bd f3 d7 d8 3e
       -0.02399082 -0.21007147 -0.044083077 0.42352256
0000e0 ce f2 f6 3e 5e 6d d6 bd 47 dd 56 3e ea 1a 7f bf
       0.4823212 -0.10470079 0.20982848 -0.9965044
0000f0 cf f0 3f 3f b5 b8 f9 be 42 54 3a bf 53 9e 48 bf
       0.7497682 -0.48773733 -0.7278482 -0.78366584
000100 70 ae 08 bf 51 00 16 3f 6a 3b 57 3e 82 fd b0 be
       -0.5339117 0.5859423 0.21018758 -0.3456841
000110 f6 5e 90 bf 4a 30 5c bf 5c f0 55 3e bf ad 00 40
       -1.127898 -0.86011183 0.20892471 2.0106046
000120 29 a3 b3 3d bd dc 06 3f 15 f9 8d 3e 27 81 6a 3e
       0.08771355 0.5268057 0.27729097 0.2290083
000130 6c 6a 5e 3f 39 f0 05 3f 81 11 15 be 59 0a 1c 3e
       0.86881137 0.52319676 -0.14557458 0.15238322
000140 45 a3 a2 bd 98 93 82 3c 63 98 03 be 48 be a1 3c
       -0.079412974 0.015939519 -0.128511 0.019744053
000150 97 2d a2 3f d5 2d 96 bf 0b a8 fe 3d 94 e5 23 bf
       1.2670163 -1.1732737 0.124343954 -0.64022183
000160 16 fa cd 3d 7c 80 ea 3c e9 07 07 be 8b e1 7a 3a
       0.10057466 0.02862572 -0.13186611 0.00095703517
000170 f5 82 98 3e 07 21 cd 3d 5e 9f 12 be dc ab 92 3d
       0.29787412 0.10016065 -0.14318606 0.07161686
000180 69 a5 a2 bd 20 ce 3c 3e 68 24 ac be f5 fd db 3c
       -0.07941706 0.18438005 -0.33621526 0.026854495
000190 15 bd 51 3d 8e 05 0d bf ea a1 84 bf ac 2b b8 be
       0.051205713 -0.550866 -1.0361912 -0.3597082
0001a0 d8 24 d2 be 5f c1 d6 3e 62 f6 8b be fb 78 07 39
       -0.41043735 0.41944405 -0.27336413 0.00012919672
0001b0 87 39 27 3f 3b 89 a2 bd 71 cc 52 3f cc f3 d4 be
       0.65322155 -0.07936331 0.823432 -0.41592252
0001c0 79 c5 71 bf 4d 48 45 3d 04 f1 e6 be 66 ab 28 be
       -0.94441944 0.048164655 -0.45105755 -0.16471633
0001d0 5f 29 a7 be c4 8a d0 3d 53 f9 fe 3e c3 48 14 3e
       -0.3264875 0.101827174 0.49799594 0.14480881
0001e0 37 b8 c0 bd 23 1c 89 bd c0 28 5e bd 06 e6 d1 3d
       -0.09410136 -0.0669482 -0.05423808 0.102489516
0001f0 9e 6d 57 bf f2 b0 ac 3f 85 80 a1 bf 84 89 a0 3f
       -0.8415164 1.34915 -1.2617346 1.2541966
000200 76 4c 50 bd b7 03 a9 3c 44 27 e6 3d 6a f9 85 bd
       -0.05085417 0.020631654 0.11237958 -0.065417126
000210 53 1b d5 3c d8 63 23 3e ba 40 a5 3d fd bd 35 bd
       0.026014006 0.15956056 0.08068986 -0.04437064
000220 31 37 34 3e 6c 39 7b be f6 7b b1 be 6a 20 ca bc
       0.17599179 -0.24533623 -0.34664887 -0.02467366
000230 ba cd 60 3e 1c df 13 bc 80 d3 eb 3e 6f 87 f2 3c
       0.21953478 -0.009025361 0.460598 0.029605595
000240 87 23 5b 3f 84 54 75 bf 78 6b d4 3e 27 6d 35 bf
       0.85601085 -0.95832086 0.41488242 -0.7086968
000250 99 ee 28 bf 13 b0 10 3f 23 3f ce bf 67 d4 80 3e
       -0.6598907 0.5651867 -1.6113018 0.2516205
000260 88 da 63 bd bb 75 82 bf bd 9b 09 bf cb 47 2b bf
       -0.05562833 -1.0192178 -0.5375326 -0.6690642
000270 c4 ad 88 3d a3 7f e3 be 47 a5 82 3e c9 44 a8 3e
       0.06673768 -0.44433317 0.25516722 0.3286498
000280 67 db 8f bd 88 82 84 bd 27 70 13 3e 9f 32 17 3e
       -0.070242696 -0.06470209 0.14398251 0.14765404
000290 ab e3 46 bf 89 9a 9b bf 3f ac e2 3e 89 b0 cd 3f
       -0.77691144 -1.2156535 0.44272038 1.6069499
0002a0 d8 77 9c bd ae 81 c5 3d fe e5 aa bd 01 2d b3 bc
       -0.07640046 0.09643875 -0.08344649 -0.021872045
0002b0 9a 8b 40 3d aa 72 33 3e 1d f0 55 bd 48 79 26 be
       0.047008134 0.1752421 -0.052230943 -0.16257203
0002c0 f5 5c a5 bf 8c 27 a9 bc 7f e9 e0 be 57 87 f1 3e
       -1.2918993 -0.02064874 -0.43928143 0.4717357
0002d0 4e 73 aa 3d e2 59 36 bf 5b 87 c0 3e 5f 05 2c 3d
       0.08322774 -0.712309 0.37603268 0.04199731
0002e0 a9 9f 76 be 04 61 41 3f 40 43 01 3e e2 71 0a bf
       -0.24084343 0.7553866 0.1262331 -0.5408002
0002f0 a4 30 8f be 1b 6d 78 bf 10 76 fa bf 43 cd 3a 3f
       -0.27966797 -0.9704148 -1.956728 0.72969455
000300 10 61 d8 3e 9a e0 8c 3f 69 e0 99 be 95 6f f2 3e
       0.42261553 1.1006043 -0.30054024 0.47350755
000310 cb 6c 08 bf ef 27 16 bf 5d 2c f2 3d 1e b7 95 be
       -0.53291005 -0.58654684 0.11824868 -0.2924127
000320 37 93 0a be 30 29 5b 3d c5 bd 1e be 4e b8 89 3d
       -0.1353272 0.053506076 -0.15502079 0.067246065
000330 19 f7 09 bf e0 f6 e9 bc 75 53 1c 3f 9c 1f f0 3d
       -0.53892666 -0.028560102 0.61064845 0.11724779
000340 e3 ee 0d 3e 3b ca 05 3e c3 27 7e 3d 6d f9 a9 3d
       0.1386066 0.13065426 0.06204964 0.08299527
000350 fa 86 2e bf ae 7d 4c bf 8e 49 8f be d5 42 a1 be
       -0.6817471 -0.7987927 -0.27985805 -0.314963
000360 f0 68 39 3f 75 d9 4b 3f bf ca 26 3f 46 6b 1a 3d
       0.72425747 0.7962869 0.65153116 0.03769996
000370 61 53 87 3d 49 34 5f be 3e 36 c5 3e 09 81 34 3f
       0.066077 -0.21797289 0.38517946 0.7050939
000380 25 60 b6 bf a1 2a d2 be cf 59 31 3f 85 45 48 3e
       -1.4248091 -0.41048148 0.6927766 0.1955777
000390 34 90 c0 3e 93 28 29 bf a8 bc be 3e 88 15 a5 3e
       0.37610018 -0.66077536 0.37253308 0.3224299
0003a0 34 17 04 3f 37 ff 05 3f 41 49 b9 3e 7c c0 3e 3e
       0.51597905 0.5234255 0.361887 0.18628114
0003b0 8d ba 89 3e 72 7f 93 3d 94 5a b9 bf ff 7a 13 bf
       0.2690014 0.07202043 -1.4480767 -0.5760955
0003c0 c6 b3 11 bd 5a 18 d8 3d 40 2e 72 bd b6 62 7c bd
       -0.035571836 0.1055152 -0.05912614 -0.061617576
0003d0 58 ee 5f bf e5 16 ed be 87 03 72 3f ab 61 ad bf
       -0.8747306 -0.4630653 0.9453663 -1.3545431
0003e0 e0 a7 98 3c 15 18 01 bd b4 00 ba bb e8 ae 19 3d
       0.018634737 -0.031517107 -0.0056763534 0.03752032
0003f0 f4 45 38 bf 66 94 02 be 25 90 03 be ed 86 c6 be
       -0.7198174 -0.12751922 -0.12847956 -0.38774815

conv_layer_2.0.bias f4 [10]
000000 0a 94 b4 be 65 39 7e bf 32 30 10 bf 05 12 1d be
       -0.35269195 -0.9930633 -0.5632354 -0.15338905
000010 c0 38 48 be f0 5a 40 bf 49 b9 0b be 45 8b e0 be
       -0.19552898 -0.7513876 -0.136449 -0.43856254
000020 ca 2e bf 3e db 9c 52 bc
       0.37340385 -0.01285478

classifier.1.weight f4 [10, 360]
000000 3a a6 bf bc 33 58 f1 bd ba 54 bf bd b3 f5 4d be
       -0.023394693 -0.11784401 -0.09342332 -0.20113258
000010 c9 4c c8 be d7 ae 30 3e cb 76 96 bd 98 af 54 bd
       -0.39121082 0.17254196 -0.07346877 -0.05192527
000020 64 b5 3c 3e e8 98 a5 3d b3 f6 b7 3d b3 d5 8e 3c
       0.1842857 0.08085805 0.08982601 0.017435884
000030 0f bf 67 bd ef 29 e2 3e 1e a6 c2 3e e8 53 de bd
       -0.056578692 0.44172618 0.38017362 -0.108558476
000040 3d 83 ca be 71 cc c1 3c 0c 66 31 3e 96 39 c0 3e
       -0.39553252 0.023657056 0.17324084 0.37543935
000050 fe ee cf 3e 03 84 35 bf 92 f6 aa 3c 16 03 eb 3e
       0.40612024 -0.7090456 0.020869527 0.45900792
000060 87 75 80 3e 58 0a 3b be 7f a2 94 3e 1e ff 2e bd
       0.25089666 -0.18265665 0.29030225 -0.042723767
000070 08 67 25 bf 67 f5 da 3b cd 36 a4 3c 68 cb 82 3e
       -0.6461034 0.0066820863 0.020045662 0.25545812
000080 59 ff b3 3e d5 b8 81 bb f8 9e ff 3e 36 ff ec 3d
       0.35155752 -0.0039588013 0.4992597 0.11572115
000090 30 fd e0 bd 8b 1b 46 bd 29 ac 9a be 7e c2 bf 3e
       -0.10985792 -0.04836611 -0.30209473 0.37453073
0000a0 e4 fd 64 3e c6 e4 fe 3d dc 4b ed 3d a2 aa 84 be
       0.22362477 0.12445979 0.11586735 -0.25911433
0000b0 bb 04 bd bd 0d fc 4d be 50 6d e4 bd 89 3a 06 3d
       -0.09229418 -0.20115681 -0.11153662 0.032770667
0000c0 75 31 ea 3d ee bf e6 3e 8a 3b f7 bc 42 fc 0c bf
       0.114352144 0.45068306 -0.030179758 -0.55072415
0000d0 bd ee 87 bd 2a f6 08 be d0 00 1c 3f b2 06 70 3e
       -0.066373326 -0.13375154 0.6093874 0.23440054
0000e0 da 73 2d 3e 33 41 99 3e 28 af 44 3e 99 db fc 3c
       0.16938725 0.29932556 0.19207442 0.030866431
0000f0 1b 1f a6 be ae 14 71 3e e8 93 03 be 72 e0 34 3e
       -0.32445607 0.23543045 -0.1284939 0.17663744
000100 2e fe a0 3c 1e 1e 50 bd 4e 79 30 3d 97 bc 04 bf
       0.019652452 -0.050809972 0.043084435 -0.51850265
000110 27 de 30 3e 7f ea f8 3e 40 0d 34 3e 9f f2 11 ba
       0.17272244 0.48616406 0.1758318 -0.00055674644
000120 2e 04 77 3c 0e 79 3a be 97 5a 7e be a2 26 8e 3e
       0.01507668 -0.18210241 -0.24839245 0.2776385
000130 6d 8a 43 be a8 63 d3 be 08 d6 62 bd 2d 14 0a bf
       -0.19095774 -0.4128697 -0.055379897 -0.53937036
000140 05 42 e7 3c af 8f a0 be 84 22 e6 be ad 22 84 3d
       0.028229723 -0.31359622 -0.44948208 0.064519264
000150 c3 0d d3 bc be 59 82 3e 29 94 65 be c2 c0 76 3e
       -0.025763398 0.25459093 -0.224198 0.24096969
000160 02 0d 05 3f ef de 84 3e 58 0d 8b 3c c5 b9 d3 bd
       0.51972973 0.25951335 0.016974136 -0.10338167
000170 e4 0c 57 3e de a6 21 bc fa 5c b0 3e 7f 95 67 3e
       0.21001011 -0.009866444 0.34445935 0.22615622
000180 ab 2a 90 3d 5c 96 12 3f 90 9b 6d 3e 48 42 8a be
       0.07039388 0.5726068 0.23203874 -0.27003694
000190 ca 3a f3 3d 2c c9 f8 3d 9c a3 e1 3b 04 f6 8a 3e
       0.118764475 0.121477455 0.006885959 0.2714082
0001a0 59 94 30 bf 02 9e 15 bf 26 26 e3 be 8e f2 8a be
       -0.6897636 -0.58444226 -0.44365042 -0.2713818
0001b0 68 22 9d 3c ed 5e 4f be d7 27 d6 be df 12 38 3c
       0.019181445 -0.20251055 -0.4182727 0.011234968
0001c0 22 1d 15 3c 81 c6 cb bc 51 b5 47 3e 33 d8 55 3e
       0.009101184 -0.024874927 0.1950276 0.20883255
0001d0 c4 4a af bd 8b bc cd be e1 1e 0b be 14 05 7f bc
       -0.08559182 -0.4018291 -0.13585998 -0.015565176
0001e0 fd 48 17 3f 41 fd 24 3e ad 24 55 bd 29 f3 15 3f
       0.59095746 0.16112234 -0.05203693 0.5857416
0001f0 64 e0 60 3e ad f4 11 3e ef 14 88 3e 9a a2 1b 3e
       0.21960598 0.14253493 0.2657847 0.15198746
000200 d7 09 c0 3e 1a db c6 3c 3a 21 96 3e ec a5 7a 3e
       0.37507507 0.024274398 0.29322225 0.24477357
000210 2b 39 85 3d 8a 41 8d 3e be e5 c0 3e 69 7f 0e 3e
       0.065050445 0.27589065 0.3767528 0.1391579
000220 b2 f6 fe bb 4f cb 99 be 08 ad 0d 3f cb b7 5a 3c
       -0.007780873 -0.30037925 0.5534215 0.013349484
000230 34 aa c7 be a1 00 cb bf 29 7a 82 bf b1 11 c2 be
       -0.38997042 -1.5859567 -1.019353 -0.37904122
000240 f3 bb b5 3d d7 a3 b1 bd ec 74 25 3e 6f 41 3b 3d
       0.08873739 -0.08673828 0.16157883 0.0457167
000250 58 74 76 be 8b 93 48 3e 16 25 1f bd 6d a3 60 3d
       -0.24067819 0.19587533 -0.038853727 0.054843355
000260 59 0e 88 3e fc 98 7b 3e 99 ea 03 be f6 63 1e bd
       0.26573446 0.24570078 -0.1288246 -0.03866955
000270 32 de 53 bd 9f c0 66 3d c1 31 ff 3e 31 8d 71 bf
       -0.051725574 0.05633604 0.49842647 -0.94356066
000280 4f 48 ce be 2d 07 52 3b e5 87 49 3e 25 ec 85 be
       -0.40289542 0.0032047734 0.19680746 -0.26156726
000290 fd 15 7e 3c 74 0d eb 3d 67 c0 7c 3e 0d 20 e2 be
       0.015508172 0.11477175 0.2468277 -0.44165078
0002a0 aa 4f e8 3d d9 3f a2 bf 0b 25 87 be 5c b7 32 bd
       0.1134332 -1.2675735 -0.2639545 -0.043631896
0002b0 b2 37 64 bc 82 9e 50 bd c4 d6 23 be 9f 66 80 bf
       -0.013929294 -0.050932415 -0.15999895 -1.0031317
0002c0 41 c7 6d bf 5a f9 5e 3e 75 37 3a bd 32 c8 a1 3d
       -0.9288216 0.21774808 -0.045463044 0.07899512
0002d0 fb 95 32 bd 84 67 c8 bd 96 3e 63 be d4 63 22 be
       -0.043600064 -0.09785369 -0.22191843 -0.15858394
0002e0 df f7 bf 3d 4b 21 b2 bd 84 9e 2e be 55 16 06 be
       0.093734495 -0.086977564 -0.17052656 -0.13094456
0002f0 bf 70 94 bd 3a c2 02 3e ec cf 1c 3f ae e7 56 3f
       -0.07248067 0.12769404 0.61254764 0.83947265
000300 61 9d 8d 3d 9c da d7 be c9 27 07 bf 48 eb 85 bd
       0.06914783 -0.42158973 -0.5279508 -0.06539017
000310 fc ab 99 bd 4b 47 00 3f 43 bb 07 3e 33 2f 17 3e
       -0.075035065 0.50108784 0.13255028 0.14764099
000320 8e c7 6f be d2 82 57 bf 03 6b 66 be 78 e7 25 3e
       -0.23415968 -0.8418399 -0.22501759 0.1620158
000330 bf 9d a3 3e 42 b6 e9 3e 29 5f 59 3e ad db cd 3e
       0.31956288 0.45646864 0.21227707 0.40206662
000340 f3 7a 68 bf 03 82 96 be 17 83 7d 3d 19 73 04 3f
       -0.90812606 -0.29396066 0.061892595 0.51738125
000350 c8 98 fe 3e e9 4d a3 3e 4e b9 b3 be c0 c7 5a be
       0.49725938 0.31895378 -0.35102314 -0.21365261
000360 cc c4 9f 3d e1 6a 2f be 1a 10 5b 3e 03 6d 36 3e
       0.07801208 -0.17130615 0.21392861 0.17815022
000370 9f 54 3e be d6 6a e6 be fe 17 e3 3c 2b 3e 66 be
       -0.18586968 -0.45003384 0.027721401 -0.22484653
000380 3b 33 db bd 69 df 9c 3e 6c da f9 3e 1f e0 d3 3e
       -0.10703131 0.30639198 0.48799455 0.41381928
000390 12 ed e8 3d 39 4b 3d be d6 6b 92 3e a7 7b 07 be
       0.113733426 -0.18485726 0.28597897 -0.13230763
0003a0 91 21 e4 3d 2d 06 48 3e 46 2b 16 bd 49 89 99 be
       0.11139215 0.19533606 -0.036662363 -0.29987553
0003b0 0b 06 08 3e 46 0a 5f bd da 22 86 be fa 72 18 bd
       0.13283555 -0.054453157 -0.26198465 -0.037219025
0003c0 ea 00 20 3c c6 d8 65 be b4 a5 b6 3e 84 9c 76 3c
       0.009765843 -0.22445974 0.35673296 0.015051965
0003d0 d3 77 35 bf 79 a2 ac be 0f 51 86 bb 02 7e a1 3d
       -0.7088596 -0.33717707 -0.0040990184 0.07885362
0003e0 77 33 11 3e ab fb 19 bf 68 1e bb be 6f 33 e9 be
       0.14179789 -0.6014964 -0.36546636 -0.45547053
0003f0 a2 f3 82 bc 80 d8 76 bd 41 54 b1 3d d4 39 b8 3c
       -0.015985314 -0.060265064 0.08658648 0.022488512

classifier.1.bias f4 [10]
000000 d4 a2 0d 3e 26 47 8d 3f 53 c0 11 3e a7 2f 25 bf
       0.13831645 1.1037338 0.14233522 -0.64525837
000010 dc 82 c0 be a8 91 91 3e 76 b0 fa bd 8e d3 d5 3e
       -0.37599838 0.2843144 -0.122406885 0.41762966
000020 a1 0c 51 bf 38 70 0f be
       -0.81659895 -0.14007652
