Model Inversion/Tumor Inversion/saved models/fedavg_global_model.pth (torch, 244936 bytes, 7 tensors)

encoder.0.weight f4 [32, 3, 3, 3]
000000 48 9c 58 3d 3e 5e 13 3d 22 e0 ff 3c 48 9d db 3c
       0.052883416 0.03597855 0.031234805 0.026808396
000010 e1 df 3f 3d 86 65 1d 3e 85 c2 c5 3c 07 92 41 3e
       0.046844367 0.1537076 0.024140606 0.18903361
000020 7a db 88 3d ee 3a 4b 3d 16 2a 72 3d 56 e9 94 3d
       0.06682487 0.049616747 0.059122168 0.07271068
000030 c5 ed 2f 3e 63 24 0f bd c0 81 dd 3d 69 7c 3f 3c
       0.17180546 -0.03494681 0.108157635 0.011687377
000040 35 95 c9 bd 56 41 91 3d 1e 23 b7 bb ef cd 33 bc
       -0.09842912 0.0709254 -0.005588903 -0.010974391
000050 6e 26 af bd 82 01 3f bd 9e 05 04 bd 7a 76 bc 3c
       -0.08552252 -0.046632297 -0.03223192 0.023005713
000060 fa 73 e0 bc 3b 73 86 bc ed aa 5b 3e 8d 67 c9 3e
       -0.027399052 -0.016412368 0.21451922 0.39336815
000070 cd e5 09 3e 85 fe 56 3e 81 a3 18 3e 63 7e 5a 3e
       0.13466568 0.20995529 0.14906122 0.21337275
000080 82 29 72 3e e0 40 2c 3d 30 9c 61 3e d2 22 36 3e
       0.23648646 0.042054057 0.22032237 0.1778672
000090 3d 4f d7 bc 20 f9 8d be c2 08 5c be da ab 80 be
       -0.026282901 -0.2772913 -0.21487716 -0.25131112
0000a0 c5 52 7b be c1 f8 30 be 1e 92 9d be 73 ca 6e be
       -0.24543293 -0.17282392 -0.3077554 -0.23319416
0000b0 1e ef 9e be 8e 58 c2 3e 0e 44 29 3e fe 87 ca bc
       -0.31041807 0.37958187 0.16529867 -0.02472305
0000c0 f0 f1 85 3d 15 48 52 3d eb c8 5c 3d 38 41 1c 3e
       0.065402865 0.051338274 0.053902548 0.15259254
0000d0 e2 4e 8c 3d 4b 5f 93 3c 72 a2 a7 3d e3 d8 92 3e
       0.06850983 0.017989775 0.08185281 0.28681096
0000e0 d3 56 fc be 20 18 31 3d 2e 1a d6 3e e2 9f ea be
       -0.49284992 0.043235898 0.4181685 -0.45825106
0000f0 ae ab 0f 3e ea b4 50 3e 16 93 b2 be 62 f9 f0 3e
       0.14030334 0.20381513 -0.34877843 0.47065264
000100 06 76 c0 3e b3 b4 2c bf bb 7a d4 3e 58 d5 5d 3f
       0.37590045 -0.67463225 0.41499886 0.8665366
000110 47 19 1f bf 36 df ef 3e 2e 2f 92 3e f7 6b 0f bf
       -0.62147945 0.46849984 0.2855162 -0.56024116
000120 3a b7 8c 3e df e0 ca 3e ce 03 fb be dd d4 fc bb
       0.2748354 0.39624688 -0.4902634 -0.007715805
000130 0f c6 98 3e a6 df e4 be 4a f8 5f 3e 8b 6b 71 3d
       0.29838607 -0.4470188 0.21872059 0.05894045
000140 94 88 c0 be 8c ec 11 3e 48 cf e3 3d 57 93 48 3a
       -0.376042 0.14250392 0.1112352 0.000765135
000150 a0 8e a2 3c d0 a7 b2 bd e5 56 b9 3c 52 05 5e 3d
       0.0198434 -0.08723414 0.022624442 0.054204293
000160 b5 1b 37 bd b3 9f 81 3d 42 8c 99 3d 62 cc c7 3d
       -0.044704158 0.06329288 0.07497455 0.0975578
000170 bd 1f cd 3d 3a 77 36 3d 4b ab 41 bd b6 07 26 bb
       0.10015819 0.044547297 -0.0472825 -0.0025334186
000180 ea ab 90 bd 1e dc c6 3d 72 7a a2 3b 56 94 83 3c
       -0.0706404 0.09709953 0.0049584443 0.016061943
000190 2e 13 6f bc 23 57 ec 3d 5d 4e 44 3d 6d 6d 0d 3e
       -0.014591975 0.115400575 0.047926296 0.13811274
0001a0 e3 7f cd bd 12 6d bf 3d de a5 71 3d 95 c7 81 bd
       -0.10034158 0.093469754 0.058996074 -0.063368954
0001b0 48 4a 6c 3d 0d f5 c2 3d 7e bb d8 bd 63 ba 8c bd
       0.057688028 0.09519396 -0.10582636 -0.06871488
0001c0 26 d1 ad 3e 60 f5 01 bc d8 ea 72 be 71 17 9c 3d
       0.3394863 -0.007932037 -0.23722398 0.076216586
0001d0 4e 33 de bd 32 34 ba 3d 8a e6 88 3e 16 91 f9 bd
       -0.10849629 0.09091987 0.26738387 -0.12185876
0001e0 c6 b4 fb 3c 45 46 bd 3e ca df a3 bd c5 e3 40 be
       0.030725848 0.36967674 -0.08001669 -0.18836887
0001f0 40 48 07 bd 55 6e fc 3d 40 84 05 3e ac 42 17 3e
       -0.033027887 0.12325732 0.1303873 0.14771527
000200 4b 70 68 be 95 49 e8 ba de 91 84 3e 7a 63 db 3c
       -0.22699086 -0.0017722124 0.25892538 0.026780833
000210 a2 c0 83 be 4b 89 9f bb 0a 17 64 bd 4f e5 a6 bd
       -0.25732905 -0.0048686615 -0.055686034 -0.08149206
000220 02 4c c0 3c 0a ba 81 bd d9 bc c9 3d 96 b0 bf be
       0.023473743 -0.06334312 0.09850473 -0.37439412
000230 57 05 c2 3e c5 bc 0c 3e 0f 52 29 be 0b 83 b8 3d
       0.378947 0.13743885 -0.16535209 0.090093695
000240 5b 8a e1 bc 95 ed 38 3e 92 11 84 3c ea 1f 0b 3e
       -0.027531793 0.1805938 0.01612166 0.13586393
000250 ba 61 a7 bd 4b a0 a2 3e 5e ed 41 3e 78 56 6b be
       -0.08172937 0.3176292 0.18938205 -0.22982204
000260 c5 57 93 3d d7 ab 3f bd 73 18 3b be 92 20 56 bc
       0.07194475 -0.04679474 -0.18271045 -0.013069289
000270 8a 18 02 be 6b 1c 8e be fa b8 ee 3e 76 91 3b 3e
       -0.12704673 -0.27756056 0.466255 0.18317208
000280 93 34 2a be c5 fe 18 3e 94 12 3b be ce b0 11 3d
       -0.16621618 0.14940937 -0.18268806 0.035569005
000290 18 21 04 bd 2b 57 34 bc 7d aa 9b 3e a7 4d 8f 3d
       -0.032258123 -0.011007111 0.3040351 0.06997233
0002a0 59 d0 2f 3e 72 b9 ec bd c0 16 a0 bd c6 52 7c bd
       0.17169322 -0.115588084 -0.07816839 -0.061602376
0002b0 0f c1 2f 3e 74 e5 04 bd 46 e8 e7 3d 8f e0 88 3e
       0.1716349 -0.032445386 0.113235995 0.26733825
0002c0 db d2 79 3a b4 1a bf 3e e4 8a 27 be 45 82 1a be
       0.0009530016 0.3732506 -0.16361576 -0.15088756
0002d0 3c f0 c7 bd 68 1c 28 3d 10 7c f9 bd 85 c9 85 bc
       -0.09762618 0.041042715 -0.12181866 -0.016331444
0002e0 5b 96 08 3d 02 2e 06 bd 60 c6 6f 3e 1b e8 3a be
       0.033346515 -0.03275872 0.23415518 -0.18252604
0002f0 05 aa 8d 3d cb 4f 36 3d d6 82 14 3e c0 4d cc 3d
       0.06917194 0.04450969 0.14503035 0.09975767
000300 55 80 1a 3e a1 4a 05 3e 92 b2 68 3e 3e 31 4b bd
       0.15088017 0.1301675 0.22724369 -0.049607508
000310 64 90 cb 3d 0b f1 f4 3d ce f4 0d bc 20 5c e6 bc
       0.0993965 0.11960038 -0.008664323 -0.0281201
000320 a4 09 c2 bc 61 db 8a 3d 9b 26 13 ba ab 1c e1 3c
       -0.023686238 0.067801245 -0.00056133576 0.02747949
000330 16 be 58 bc 63 64 f9 3b e4 a9 82 3d c0 e6 5d 3e
       -0.013228914 0.007610844 0.0638006 0.21670055
000340 17 3c 28 3e d9 9f 2e 3e 65 a9 66 3d f1 7f 44 3e
       0.16429172 0.17053165 0.05631389 0.19189431
000350 32 16 c9 3c 0c 01 0b 3e ca 44 55 3e a4 1a 3f 3d
       0.024546716 0.13574618 0.20827022 0.046656266
000360 2a 64 ce 3d b6 ce e4 bd 76 08 a0 3e 40 7f 7f 3d
       0.100776985 -0.111722395 0.31256455 0.062377214
000370 1f bb 0e 3f fa e1 c5 bd d2 2e 2a bd 1e 53 0e bf
       0.55754274 -0.09662242 -0.041548558 -0.55595577
000380 ec a8 be be 23 0b d3 bd e5 12 9a 3b 0a 68 e8 3e
       -0.37238252 -0.103048585 0.0047019594 0.45391876
000390 79 cb 02 3f 0a c3 a8 3f 92 e6 77 3d f8 11 1a be
       0.51091725 1.3184521 0.060522623 -0.15045917
0003a0 ff f5 42 bf 32 d9 54 bf e0 cb 4b be 7e 56 10 be
       -0.7615661 -0.83143914 -0.19901991 -0.14095494
0003b0 3b c8 7e 3e 52 78 5a 3e e8 e8 6b 3f 36 5b 41 be
       0.2488107 0.21334961 0.9215226 -0.1888245
0003c0 e8 76 8d 3c c2 98 0c bf c8 32 c1 be 26 ef 20 bf
       0.017268613 -0.5492059 -0.37734056 -0.6286491
0003d0 ae c5 2c be 80 48 a3 bd 72 db 6b bc 38 35 9d 3e
       -0.16872284 -0.07972813 -0.014395582 0.30704665
0003e0 3a 9a ea bb 8a e6 5c 3d ff ee 07 3e 95 d5 ce bd
       -0.0071594985 0.053930797 0.13274764 -0.10099331
0003f0 9f a3 8d bf ca ea ce be 2b ad d9 3d b1 f1 a8 bd
       -1.1065558 -0.40413505 0.10628732 -0.08249224

encoder.0.bias f4 [32]
000000 9b aa f2 3c 3a 04 df bd 9e 5c 71 3e 55 39 5b bc
       0.029622367 -0.10889478 0.23570487 -0.013380368
000010 85 41 2d be 3e cd 18 bd 05 2f 97 bd d1 c7 c8 bd
       -0.16919525 -0.03730511 -0.07382015 -0.09803737
000020 2c 28 c4 bc 7a c9 9b be f0 e9 8c bd 28 c5 bf be
       -0.023944937 -0.30427152 -0.068805575 -0.37455106
000030 9b 73 e3 bc b7 85 8e 3c fe 3e 6b be 90 47 15 be
       -0.027765086 0.017397745 -0.22973248 -0.1457808
000040 4a bd 2c be 82 3c 40 3e c8 ca 07 3d 5e 8d de 3d
       -0.16869083 0.18773082 0.03315237 0.108668074
000050 59 6d 88 bd f0 9b c0 bd 2b 48 22 bd 7a a2 f4 3d
       -0.066614814 -0.09404743 -0.039619606 0.119450524
000060 0a 48 53 bd d4 c1 0b 3d c0 c7 9d bd 9a df 5b bd
       -0.051582374 0.034120396 -0.07704115 -0.05368004
000070 13 07 55 be 32 3a 46 3e 6f 88 c2 3e fd 81 8f be
       -0.2080348 0.19358137 0.37994716 -0.2802886

encoder.3.weight f4 [64, 32, 3, 3]
000000 07 64 82 3d 2e 89 c2 bc ed e7 7f 3c e2 b2 9b 3c
       0.06366735 -0.023747053 0.01561926 0.019006196
000010 a0 66 e8 bd c9 6e b9 bd e0 c3 2d 3d 45 b4 70 bd
       -0.11347699 -0.09054334 0.04242313 -0.05876567
000020 9e e8 a5 bd 88 20 b9 3d 0d 9b b9 bd 52 f1 0a bd
       -0.08101009 0.09039408 -0.09062777 -0.033921547
000030 e8 0c 56 3d 26 7e 2d bd 29 cc 94 bc 36 8d cf bc
       0.052258402 -0.042356633 -0.018163757 -0.02533589
000040 7d 91 4f 3d 4e 18 85 3c 84 49 08 be 56 38 c6 ba
       0.050675858 0.016246941 -0.13309294 -0.0015122991
000050 25 69 a3 bb df 9e 19 bd 57 e8 40 bd b0 25 bc bd
       -0.0049868994 -0.037505027 -0.047096577 -0.09186876
000060 12 9e ee bd 6e e9 b6 bd 06 01 24 be 4e 8b ab 3c
       -0.11651243 -0.08931242 -0.16016015 0.02094045
000070 70 61 b4 bd 77 b7 85 3c 2b ac c1 3d d7 58 b3 bd
       -0.08807647 0.016322834 0.094566666 -0.08757179
000080 a3 48 12 3d 02 8b 9c bd 2d 77 f0 bd 39 1b c9 3c
       0.035713803 -0.07643701 -0.11741481 0.024549114
000090 a2 b9 54 be 20 29 11 bd 5a 15 87 bc ae 07 64 3c
       -0.20773938 -0.03543961 -0.016489673 0.013917847
0000a0 4a 06 70 3d 2f 6c 11 bd 66 c0 46 bd 83 2b 75 3b
       0.058599748 -0.035503563 -0.04852333 0.0037409968
0000b0 be 4d 31 bd 81 c8 06 bd 8a b6 29 3d b9 3f 83 bd
       -0.04328703 -0.03290606 0.04143385 -0.064086385
0000c0 7e d5 f1 bc a2 c4 83 bc d5 83 1a bd d3 a1 c1 3d
       -0.029520746 -0.016084973 -0.03772338 0.09454694
0000d0 5a 63 0a be 98 be ab bc a3 6e 69 be a0 49 bc bd
       -0.13514462 -0.020964906 -0.22796111 -0.0919373
0000e0 b3 1b a8 bc 8d 25 c6 bc af f6 30 bd 62 66 20 3d
       -0.02052102 -0.024187827 -0.043204006 0.03916014
0000f0 e2 6e e8 3b 0c a8 9e 3d 8e 6c ac 3c 26 5d f0 3d
       0.0070932964 0.07746896 0.021047857 0.11736517
000100 8f 04 95 bd d7 2a 2f bd 4a a6 05 3d 02 ce b5 3c
       -0.0727626 -0.042765465 0.03262929 0.022192959
000110 56 65 92 bd 60 35 fe 3a d6 b5 b0 3d b3 a1 91 3c
       -0.071482345 0.0019394569 0.086284325 0.0177773
000120 46 d5 e0 bd 90 13 b8 bd 57 fd a3 3e 4b a4 a8 3d
       -0.10978179 -0.08988106 0.3202922 0.082344614
000130 c8 80 57 3e e1 36 a1 be e7 fc 28 be ad f3 a0 bd
       0.2104522 -0.31487182 -0.16502725 -0.078589775
000140 e7 a3 4c bd 36 a0 4e bd d3 c4 51 bd da 08 14 be
       -0.049960997 -0.050445758 -0.051213097 -0.14456502
000150 ae e9 62 bd 43 32 ec bd dc 6a 80 3e 08 45 7f bc
       -0.055398636 -0.11533024 0.25081527 -0.015580423
000160 84 42 1a 3d 01 01 c3 3d 63 c2 06 3d 9a b1 85 3d
       0.03766109 0.09521676 0.032900225 0.065280154
000170 a0 62 79 bd ca 7c e8 bc de 60 b8 3d 58 1b c7 3a
       -0.06088507 -0.028379817 0.09002851 0.0015190644
000180 31 b7 9f 3b ca a8 7c bd 32 6a 8a bd 0e de 64 3b
       0.004874133 -0.061684407 -0.067585364 0.0034922394
000190 29 a9 c7 bd 31 fc bf 3d 36 71 c7 bc b8 f0 6c bd
       -0.097490616 0.093742736 -0.024345975 -0.057846755
0001a0 e3 5e ff bd 42 22 d1 bd 91 50 9d ba fd 78 81 3c
       -0.1246927 -0.10211612 -0.001200216 0.015804762
0001b0 03 70 65 bc 25 78 d8 3c c0 c3 d3 3b be 98 9a bd
       -0.014003756 0.026424477 0.006462544 -0.075486645
0001c0 6a ce 11 3d a9 29 04 bd 32 1a 86 bd 35 ee 4c bd
       0.035597242 -0.032266293 -0.06547965 -0.05003186
0001d0 4a fe b6 3d 85 ce 49 3d 3a 7e 68 bb 30 27 7c 3d
       0.089352205 0.049269218 -0.0035475628 0.06156081
0001e0 66 01 4d bd 42 ae 48 bc a9 b6 96 3d fd c0 44 3d
       -0.05005016 -0.012248578 0.073590584 0.04803561
0001f0 d5 8f fa 3d 72 84 a9 3c 27 4d 96 bd cb 59 58 be
       0.12234465 0.020693038 -0.073389344 -0.21128003
000200 ca 40 9c bd 0d 56 c3 bd 17 fa aa 3d ba 10 7f bd
       -0.07629545 -0.09537897 0.08348482 -0.06227181
000210 3d e8 7c bc 07 88 44 be 70 39 9d 3d fa 4c 4b 3d
       -0.015436229 -0.19192515 0.07676971 0.049633957
000220 c6 65 e2 3c b5 4c 1e bd 53 6d 0a 3d c6 db 84 3c
       0.02763642 -0.038647372 0.033795666 0.016218077
000230 70 4e 17 3d 23 c8 62 3c 01 c8 1f 3c fb db 8b bd
       0.03694004 0.013841662 0.0097522745 -0.06829067
000240 8d 3b 2e bd c5 8d 02 be 0e f5 10 bd 56 aa b6 3d
       -0.04253726 -0.12749393 -0.035389952 0.08919208
000250 5b 61 b8 3c 52 99 46 3d 71 4b 37 3b ea 57 99 bc
       0.02250736 0.04848606 0.002796855 -0.018718679
000260 40 40 2e 3d 1e d1 1a 3d 2d 60 b1 3d 4d fb d6 3d
       0.042541742 0.037797086 0.08660922 0.104971506
000270 c8 90 ca bd 02 d4 e3 bd de f8 b2 bd e2 21 8f bd
       -0.09890896 -0.11124422 -0.08738874 -0.069888845
000280 6d 6f cc bc 92 af c7 bd 3a fe 45 3c 4a 53 79 3d
       -0.024955476 -0.09750284 0.012084538 0.060870446
000290 d0 5c ea bc e4 6b 0f bd e8 9c fc bc 73 77 9e 3d
       -0.02860871 -0.035015002 -0.030836537 0.07737627
0002a0 00 e8 75 bc bd d7 e6 bd 06 b4 cf bc 93 a8 7f 3c
       -0.015008926 -0.112716176 -0.025354397 0.015604156
0002b0 ce da 85 3c 13 fc 98 bb aa 02 24 bd 53 c9 e0 bc
       0.016339686 -0.0046687215 -0.040041603 -0.027439749
0002c0 a0 63 fd 3b 15 79 7c bc 7e 29 a2 bd d8 04 1a 3b
       0.0077328235 -0.015409728 -0.0791807 0.0023501422
0002d0 63 3b 43 3d 5d 5b e9 3c 82 83 38 3d d1 99 0e 3d
       0.047664057 0.028485948 0.04504729 0.03481466
0002e0 98 e7 f7 3b 68 c8 5f bd 82 ad 1a bd 0f 5d 41 3c
       0.00756545 -0.05463448 -0.037763126 0.011801972
0002f0 a0 1f ef 3c 53 8c 3e 3c da 64 55 bd 62 ed 0e 3c
       0.029189885 0.011630136 -0.052098133 0.008723589
000300 82 91 90 bd 35 b6 3f bd 2d 4f 7a 3d fa c1 9e bd
       -0.070590034 -0.046804626 0.061110664 -0.07751842
000310 72 12 f9 3c 8b 76 79 3b d3 b8 e2 3b 28 fb 84 bc
       0.030404303 0.0038065042 0.0069190054 -0.016233042
000320 98 60 d2 bb f8 b5 57 bc 91 15 a9 3d ac 7d 99 3d
       -0.0064202063 -0.013165943 0.082560666 0.07494673
000330 53 44 a3 bc b6 81 02 bc 3f 0e c0 bc c8 88 f3 3b
       -0.01993004 -0.007965496 -0.023444293 0.007432077
000340 c3 39 dd bd dc 5c 8d bc 6c a8 38 3c 0f 4c a4 3c
       -0.10802033 -0.017256193 0.011270624 0.020055799
000350 f0 5b 6a bd fd ff 93 bc 7e 1f 0f 3b e8 08 4a 3d
       -0.057216585 -0.0180664 0.002183884 0.0493249
000360 06 eb b7 3c 4e 9a bd bd 6a fc 95 3b 2a 9e 85 3d
       0.022450935 -0.09257947 0.0045772092 0.06524308
000370 a2 e1 c0 3b e7 14 93 3d b8 db 27 bd f2 1d 96 3d
       0.0058862725 0.07181721 -0.040981025 0.0732993
000380 31 95 87 3d fe f9 82 bc 76 c2 15 be fa d2 b3 bd
       0.06620253 -0.015988346 -0.14624962 -0.08780475
000390 d3 44 bb 3c e5 b0 38 be f2 86 4a 3d b6 6f a0 3c
       0.022859966 -0.1803623 0.0494451 0.019584518
0003a0 8e db e4 3c a0 0c 88 bd be 97 ae 3c 88 2b ee bd
       0.027936723 -0.06643033 0.02131259 -0.11629397
0003b0 45 fd 36 bd 52 80 56 ba 16 48 4e bd 49 c9 98 3c
       -0.04467513 -0.00081825734 -0.050361715 0.018650668
0003c0 f6 5f 78 3d d0 1e d3 bb a3 3a fa bc fc 22 95 3c
       0.06063839 -0.006442882 -0.030545538 0.018205158
0003d0 82 91 1a bd f8 3c 92 bc 98 1d 7c 3d ab fd 57 bb
       -0.037736423 -0.017851338 0.06155166 -0.0032957594
0003e0 7a 54 b4 bd 9a 23 77 bd 7d 1e 70 bd 76 e5 07 be
       -0.08805175 -0.060336687 -0.058622826 -0.13271126
0003f0 2c 4b 84 3d 8e ec 42 bd 96 9e cd bd 65 98 72 bd
       0.064596504 -0.047588877 -0.100400135 -0.059227366

encoder.3.bias f4 [64]
000000 0d ac 8b bd 7a 09 84 be 60 67 19 bf 14 a7 13 3e
       -0.068199255 -0.2578848 -0.5992336 0.14419204
000010 99 7c 06 be 0d 41 19 be 97 fc 8d be 0c ef a7 3d
       -0.13133468 -0.14966221 -0.27731773 0.081998914
000020 6b 29 de bd 2a 87 00 3b 18 41 ce bd fa ca 18 3e
       -0.108477436 0.0019611814 -0.100710094 0.1492118
000030 b5 c4 dd be 06 a4 8d 3d 5d 28 9f 3d 2d e3 4c bc
       -0.43314138 0.069160506 0.077713706 -0.012505335
000040 40 13 8f 3c a0 19 01 3b ce a6 41 bd 82 bf f4 3b
       0.017465234 0.0019699112 -0.047278218 0.0074691186
000050 83 d6 51 3e d3 95 c2 bb 53 44 d9 bc 5a 69 2e 3e
       0.20491986 -0.0059382706 -0.026521837 0.17032376
000060 f1 3c 22 bf 43 2a 12 3d 81 da 49 be 08 12 af 3e
       -0.6337424 0.035684835 -0.19712259 0.34193444
000070 66 55 b1 3d 6a ad 38 be 96 45 9e 3c b6 34 ef 3d
       0.086588666 -0.18034902 0.01932029 0.11679976
000080 c5 9c 11 3e 25 f9 5a 3d 18 15 4f be 01 12 00 bf
       0.14219959 0.05346026 -0.2022289 -0.5002747
000090 62 9c 04 bd e6 2f 0f be 9b b7 2d be 8e 69 b2 be
       -0.0323757 -0.13983116 -0.16964571 -0.34846157
0000a0 78 9b 17 3d 55 2c 16 be 2a 5d ef bc 0e 6f af be
       0.0370135 -0.14665349 -0.029219229 -0.34264416
0000b0 d0 4f 5a bd 5d f5 e8 3d a5 60 5c bd 84 f4 2d 3e
       -0.05329877 0.11374924 -0.053803105 0.16987807
0000c0 6d af 33 be 38 66 0e bd 66 46 23 be 6c d7 45 3c
       -0.17547388 -0.034765452 -0.15944824 0.012075286
0000d0 fa 7f d9 bd ca 79 58 3d a9 11 07 3d fa 95 27 bc
       -0.10620113 0.052850522 0.032975826 -0.010228628
0000e0 67 0f cb bd 79 98 af 3e a6 7d 41 be 7e 82 c5 bc
       -0.09915047 0.34296015 -0.18895587 -0.024110075
0000f0 69 ef 0d be 29 b6 17 be b0 e6 88 be 3e 4f 90 be
       -0.13860859 -0.14815582 -0.267385 -0.28185457

encoder.6.weight f4 [64, 64, 3, 3]
000000 5b 4c 6a 3c bd ae 71 3d 62 22 3e bd a0 66 0c 3d
       0.014300431 0.059004534 -0.04641951 0.03427756
000010 28 db e4 bd 48 dc 57 3d f3 ef ba 3c 9c a4 95 bc
       -0.11174613 0.05270031 0.022819495 -0.018266968
000020 9a 99 87 3b bd 32 ae 3c 57 34 a8 bd b6 ba e7 3c
       0.004138184 0.021264428 -0.08213108 0.028287273
000030 62 bd d4 bd 27 63 a9 3c 4d 3e 96 bd 99 18 02 be
       -0.103876844 0.020677162 -0.07336102 -0.12704696
000040 68 7f a8 3b 5e d2 23 3e 12 75 bf bc cf 4a 3e 3d
       0.005142141 0.15998217 -0.023371253 0.04645806
000050 2b 10 ff bc b8 35 3e bd ba 73 99 bc 45 76 1d 3d
       -0.03113564 -0.04643795 -0.01873194 0.03844287
000060 c5 21 0a bd 52 42 8e 3d a3 0a a9 3d 21 48 15 3e
       -0.03372361 0.06946243 0.08253982 0.14578296
000070 42 97 49 bd 87 2c 3a bd f3 ec 89 3d 12 1e a1 3c
       -0.049216516 -0.04545262 0.067346476 0.019667659
000080 60 13 43 bd 4b 22 63 bd 59 3d c4 3c 78 b3 b0 bc
       -0.0476259 -0.055452626 0.023955034 -0.021569952
000090 31 ba 0d 3d 7b e6 06 bd 23 1a 4c 3d e8 21 1b bc
       0.034601394 -0.032934647 0.049829613 -0.009468533
0000a0 72 42 b6 bc 4a 39 95 bd b4 94 90 3d c6 e8 09 3b
       -0.02224848 -0.07286318 0.07059613 0.0021043285
0000b0 83 10 ba 3c 5a b3 76 3c 30 94 a5 3c ca 14 ea 3c
       0.022712952 0.015057409 0.020212263 0.028574366
0000c0 45 b9 6c bd 83 ea 7e 3c 42 50 b5 3d 62 7b 6e 3d
       -0.057793874 0.015558842 0.088531986 0.058223136
0000d0 ef cc 21 3d 38 93 32 bd 42 fb 0c bd 32 a8 9c bc
       0.03950208 -0.04359743 -0.034419306 -0.01912317
0000e0 aa b4 12 3e 76 d6 52 be 77 67 35 bd 43 06 77 bd
       0.1432673 -0.20589623 -0.044288125 -0.060308706
0000f0 b5 fb 7d 3d b8 29 cf bd 8d 7b a4 bc 90 9d f0 3c
       0.062007625 -0.10115379 -0.020078445 0.029372007
000100 d5 21 0e 3e 92 b3 a4 bd d3 c5 84 3d ad a3 45 3c
       0.13880093 -0.08042063 0.064830445 0.012062949
000110 d5 0e 4a bd 6e c9 cd 3d b1 3a c4 bd be f0 40 bd
       -0.04933055 0.10048185 -0.09581507 -0.04710459
000120 fa f4 1e bd fc eb c5 bc 9f 50 0c bd 3e 01 e2 bc
       -0.038807847 -0.024160378 -0.034256574 -0.027588483
000130 e8 e7 09 be fd 3b 4d bd 31 ec 87 3c a5 af f0 bc
       -0.13467371 -0.050106037 0.016592117 -0.029380629
000140 6e b9 00 3d 93 68 d4 bc eb 62 0f bd 20 d8 d1 3c
       0.03142684 -0.025928771 -0.035006445 0.025615752
000150 d3 c1 47 bd 98 d5 23 bc 05 5c dc bd 6e eb 09 3d
       -0.04876883 -0.009999655 -0.10759739 0.03367179
000160 46 69 84 3c c0 fd cd 3d c9 5d 00 bd b6 31 9f bc
       0.01616348 0.100581646 -0.03133944 -0.019432884
000170 5e f6 1c bd 06 e9 e3 bd cd ac 52 b9 1e e7 f1 3d
       -0.03832089 -0.1112843 -0.00020091534 0.1181166
000180 e5 ba 56 3e 3a a4 49 bc d3 49 e5 3c 31 ee 3e bc
       0.20969732 -0.012307221 0.027989304 -0.011653469
000190 bf 40 9f 3c a1 6c 46 bd d5 99 75 3d 09 0e 1c bc
       0.019440053 -0.04844344 0.05996116 -0.009524831
0001a0 9b 35 be 3c 82 86 ab bd 2b 4c 0b 3d 2e 21 90 bc
       0.02321892 -0.08375265 0.034008186 -0.017593946
0001b0 e4 1b 97 bd 40 6a 95 3c 43 0b 42 bd ca 3d 55 bd
       -0.073783666 0.01823914 -0.04737402 -0.05206088
0001c0 17 01 ae bd 38 39 cd bd 7a 98 df 3d a5 6f 0b 3d
       -0.084963016 -0.10020679 0.109177545 0.03404202
0001d0 b2 0d 51 bd 57 50 b9 3d 3a 21 a4 3c fd 54 2f 3d
       -0.05103845 0.09048527 0.020035375 0.04280566
0001e0 66 24 84 bc e6 3a d9 bc 58 fb da bc 3a d2 fd 3c
       -0.016130637 -0.026517343 -0.026731178 0.030984033
0001f0 2a ce 5a bd 8d f5 58 bd 61 43 a3 3d 2a 88 b8 3c
       -0.05341927 -0.05296855 0.07971836 0.022525866
000200 93 f8 1f bd f3 d4 32 bd 5a ba 11 3d bc 06 80 3d
       -0.03905542 -0.043660115 0.03557811 0.062512845
000210 98 25 d2 bc 51 cb c3 3c 48 6f 27 3c 3b 20 52 3d
       -0.025652692 0.02390066 0.010219403 0.05130027
000220 00 f5 94 3d ab 36 aa 3d 25 42 93 bc 1e e6 e4 3c
       0.072732925 0.08311208 -0.017975876 0.02794176
000230 75 de 84 3c 07 bb 96 3d 7d a1 fd bb 60 36 2c bd
       0.016219357 0.073598914 -0.007740198 -0.042044044
000240 8b 70 01 bd 2d 61 c5 bc b0 82 22 3d 0d a4 01 3e
       -0.03160147 -0.024094189 0.039675415 0.12660237
000250 06 da e9 3c c2 22 b8 3c 3a 09 24 3d 53 7f 18 bd
       0.028546344 0.022477511 0.04004786 -0.0372308
000260 d7 5f b4 3b 55 e5 a6 bd 2c b7 9b bc a2 c5 5e 3d
       0.005504589 -0.0814921 -0.019008242 0.054387696
000270 46 46 79 3d 56 13 d2 bc 10 b5 e5 bc 87 66 bc 3d
       0.060858034 -0.025643986 -0.028040439 0.09199243
000280 97 f5 12 3d 4e 2a 4c bc ba 94 5c 3d 48 3c 77 3d
       0.035878744 -0.012461258 0.053852774 0.060360223
000290 12 1c 55 bd 9f 5a 09 bd 8d ba 85 3d 20 fd 51 3d
       -0.052028723 -0.03353369 0.06529722 0.05126679
0002a0 74 9b 30 3d dd fc a6 bd de c6 4b bc 6b 4d 46 3d
       0.043117 -0.081536986 -0.01243755 0.048413675
0002b0 ad 7e 8a bd 40 26 ce bc 96 9e 78 3c 68 75 bd bc
       -0.06762443 -0.025164723 0.015174529 -0.023127273
0002c0 2e 21 cc bd 36 2a 97 b9 63 e2 b4 bd f0 36 be bd
       -0.09967266 -0.00028832414 -0.08832242 -0.09287822
0002d0 ca bc 7b bd c8 dc c6 bd 22 94 94 3d fe f6 3a bd
       -0.06145934 -0.097100794 0.072548166 -0.045645706
0002e0 de de c2 bd ad 3c 50 3c de 05 91 bd 57 e5 a7 bd
       -0.09515165 0.012709779 -0.07081197 -0.0819804
0002f0 c0 c9 e3 3c 20 46 df 3d fa 2f 4b 3d 2f b8 82 bd
       0.027806163 0.10902047 0.0496063 -0.063827865
000300 8c 1f 92 bd 76 31 2e bd 6e 54 a2 3b 2e f7 16 3d
       -0.07134923 -0.04252764 0.0049539125 0.036856823
000310 50 ff d2 bd d6 af a3 3c 60 e4 fe bd b5 d1 fe bc
       -0.10302603 0.019981306 -0.12445903 -0.031105855
000320 f0 0b 5f 3d ca 63 0c be 0e 76 ad bb 63 ce d1 3b
       0.054454744 -0.13709942 -0.005293614 0.006402777
000330 02 1e 37 bd cb bb 38 bd 12 9d a5 3d 5d e2 d7 3c
       -0.044706352 -0.04510097 0.080865994 0.026353056
000340 60 76 32 bc b8 42 73 bc 74 29 88 bd 5a 22 5e 3b
       -0.010892481 -0.01484745 -0.066485316 0.0033894987
000350 2e 62 2c 3d 2a df 24 3d 7d 9e f0 3d 3d 35 53 3c
       0.04208582 0.04025189 0.11748979 0.012891111
000360 eb 98 cf bd 96 34 b3 bc d6 d2 e7 bc bf 87 a8 bd
       -0.10136589 -0.02187566 -0.028298777 -0.082290165
000370 5e 83 a9 bc 3a 63 54 bd ce 17 8e 3d 0b 42 6f 3d
       -0.020692524 -0.051852442 0.06938134 0.058412593
000380 b3 0d 67 bd bd 50 9c 3d 40 5b 34 3b 96 e3 05 bd
       -0.05640955 0.07632587 0.002752021 -0.032687746
000390 33 aa 29 3d b8 68 60 bd 92 e9 5c bd 82 29 22 bb
       0.04142208 -0.054787368 -0.053933688 -0.002474398
0003a0 4d 68 e5 bd 85 69 19 3d a8 54 af bd 4a 40 ac bc
       -0.112015344 0.037454147 -0.08561069 -0.02102675
0003b0 dd 77 51 bd a5 a8 6d bc 90 0a 96 bc c6 b4 80 3c
       -0.0511397 -0.01450554 -0.018315583 0.0157112
0003c0 65 8c 93 bd 52 99 d0 3b 8e cc fe 3d d2 8a a9 bc
       -0.072045125 0.0063659335 0.124413595 -0.020696077
0003d0 6e fe 1b bd 5f ad 1c bd 58 96 0e 3d 59 5c 80 bd
       -0.03808444 -0.038251277 0.034811348 -0.06267614
0003e0 03 04 dc 3c fd d5 e8 bd 08 cf f0 bd 66 6f b9 bc
       0.026857382 -0.1136894 -0.11758238 -0.022636127
0003f0 4f 13 0c be 56 3b 1c 3e 01 7c 20 bd ae cd fa bc
       -0.1367924 0.1525701 -0.03918076 -0.030615654

encoder.6.bias f4 [64]
000000 75 22 44 bd 05 bb ac bd 16 01 3f be b6 93 c6 3c
       -0.047884423 -0.08434109 -0.18652758 0.024240356
000010 42 c3 0f be 20 de 7d bc 40 c1 94 3e 66 ad 55 bd
       -0.14039329 -0.015494853 0.29053688 -0.05216732
000020 ed 25 7e 3d f8 49 b6 3d c0 9c fc bc 1f b4 30 3b
       0.062047888 0.08900827 -0.030836463 0.002696283
000030 ef 35 87 bd d1 a1 98 3d 08 42 fe bd 5a 79 55 be
       -0.06602084 0.07452739 -0.12414938 -0.20847073
000040 76 13 88 bd 1b 48 06 be c8 24 d5 3e 6e 2e 65 3d
       -0.06644337 -0.13113444 0.41629624 0.055952482
000050 da a7 3c bd 9a 8c 44 be 0e 1a 0c 3e 58 bc 58 be
       -0.046058513 -0.1919426 0.13681814 -0.21165597
000060 28 13 97 bd cb 98 db 3d f5 8d 0b 3d 1d 4e f5 bd
       -0.07376701 0.10722502 0.034070928 -0.119777896
000070 0d be 36 be 7a e3 15 3e 08 2c cd bd 32 97 57 bd
       -0.17845936 0.14637557 -0.10018164 -0.052634425
000080 58 34 96 bd 7e 12 87 3d 31 02 ad 3d e6 73 1d be
       -0.073342025 0.06595324 0.084476836 -0.15376243
000090 d6 10 27 be cd 7f c7 be 5e a2 59 be 5e 5a 04 be
       -0.16315016 -0.38964692 -0.21253344 -0.12925097
0000a0 ca 8b 09 be b6 0b bc 3e c1 5e 0a 3e 10 c4 d7 bd
       -0.13432232 0.36727685 0.13512708 -0.10535443
0000b0 13 4a d0 3e e5 4d 38 bb c8 c8 9c 3b ba 83 06 3c
       0.40681514 -0.00281226 0.004784677 0.008210117
0000c0 fd 3d 91 bd d5 3b 6b be 0e 2c 31 be 66 ae 1d bd
       -0.070919015 -0.22972043 -0.17301962 -0.038496397
0000d0 47 ab b1 bd 38 41 b1 3b 14 c7 bb bd 7c 2d a1 3d
       -0.08675247 0.005409386 -0.091688305 0.078700036
0000e0 c6 db 72 bd f2 48 a4 3d 48 fa 00 be 33 c8 1d 3d
       -0.059291624 0.08021726 -0.12595475 0.038521003
0000f0 a8 a8 e0 bc 58 12 e8 bd fe ba 37 bd 8b eb 2f 3c
       -0.027424172 -0.11331624 -0.044856064 0.01073731

classifier.weight f4 [4, 1024]
000000 8a 4f 40 bd 10 3f 65 bc 69 09 2e bc c4 04 83 3d
       -0.046950854 -0.013992086 -0.010622361 0.06397393
000010 99 a5 90 3c 66 a9 85 bd 08 c4 85 3c 96 de 3f bb
       0.017657088 -0.06526451 0.016328827 -0.0029276959
000020 95 4a 0e 3c b6 14 8e bc eb 82 9a 3c 11 c4 0f 3d
       0.008684774 -0.01734386 0.018861255 0.035099093
000030 f7 61 90 3c 2e 91 02 3a 0e 07 0a 3d f0 86 63 3d
       0.017624838 0.000498074 0.033698134 0.05554861
000040 e6 72 42 3d d8 af bb 3c e2 8e 09 be ae 2e 9c bb
       0.047472857 0.022910997 -0.13433412 -0.004766307
000050 24 d4 2b 3d cc 54 9c 3d 51 07 01 bd c0 7c 45 bc
       0.04195036 0.07633361 -0.031501118 -0.0120536685
000060 e0 87 03 bd 51 1a 9d 3d 13 ba e7 3d 38 e1 48 3d
       -0.032112002 0.07671035 0.11314788 0.04904291
000070 c8 c0 b5 3d 07 ed b5 3c 94 15 89 bd aa 4d 3e bc
       0.08874661 0.02220775 -0.06693569 -0.011615196
000080 bb 2b 67 3d a6 16 0a 3c 64 d2 92 bd 8b 5f 66 bd
       0.05643819 0.008428251 -0.07169035 -0.05624346
000090 fa 72 a5 b8 7d 66 ea bb fa ff b3 bd bb 84 4f bc
       -7.889229e-05 -0.007153331 -0.08789058 -0.012665923
0000a0 b3 c2 61 bd 3a 19 fc bc 6b 2a 7a bd f2 d2 16 bc
       -0.05511732 -0.030773748 -0.06107561 -0.009205567
0000b0 de a0 3d 3b 87 10 08 bd b0 0e 69 3a 62 1b 4c 3d
       0.0028934996 -0.033218887 0.0008890433 0.0498308
0000c0 12 39 d7 3c f0 bc b6 bd 5b 77 f6 bd 76 3f 92 3d
       0.02627233 -0.08922756 -0.12034484 0.071410105
0000d0 d6 b6 14 be 3d 6e e4 bd ae 6a 04 bd 90 9c 87 bd
       -0.14522871 -0.11153839 -0.0323283 -0.06621659
0000e0 b4 a8 06 bd 01 b9 bb 3d 5b 91 c4 3d 39 2c 26 3e
       -0.03287573 0.09166146 0.09598037 0.16227807
0000f0 86 8b c9 3c 0e 70 90 3d 80 0d 1a 3e 84 d7 92 3c
       0.024602663 0.07052623 0.15044212 0.017925031
000100 4a 28 69 bd 95 1f e7 3c 9e 25 a2 3d 13 9f 81 bd
       -0.05692319 0.028213302 0.07917331 -0.06329169
000110 2e dc 31 bd 53 cb f1 3d c6 3a 2a 3e 7e e2 1b 3d
       -0.04342287 0.11806359 0.16623983 0.038057797
000120 33 94 7b bd 65 dd 7c 3d 2e 0a 34 3e e0 a7 51 bb
       -0.06142063 0.061734576 0.17582008 -0.003199093
000130 ce b8 ef bd 2a 15 26 be 6a f6 92 bd 1c 9f 11 bd
       -0.117051706 -0.16219011 -0.07175906 -0.03555213
000140 ee f1 03 be 4a 31 3b bd 88 51 0f 3c 58 7d 61 bd
       -0.12885258 -0.045701303 0.008747466 -0.055051178
000150 60 dc 46 bc fb 46 dd 3b c8 53 ea 3c f8 72 d2 bd
       -0.012137502 0.0067528463 0.028604403 -0.10275835
000160 b2 7b 83 3d e5 79 62 3d 75 5a 0c bd 85 b3 52 3d
       0.064200774 0.05529203 -0.034265954 0.051440734
000170 9c 28 98 3c 03 5d 01 bc 1a 7a 11 bd 6a 81 ec 3c
       0.018574052 -0.007895711 -0.035516836 0.028870303
000180 d3 b6 db 3c 3b ab 57 bd 8b 02 66 ba c2 07 88 37
       0.026820576 -0.052653532 -0.00087741826 1.6216076e-05
000190 e2 c6 b6 bd 43 e3 2f be 57 ea c2 bd 58 14 ff bc
       -0.08924653 -0.17176537 -0.09517353 -0.03113763
0001a0 c9 04 97 bd 78 b6 26 3b d0 6c 1e 3d f0 2d ca bb
       -0.073739596 0.002543835 0.03867799 -0.006170027
0001b0 7c ec 46 bd 1f d3 96 3d c3 88 13 bd 5d ff 4b 3d
       -0.048565373 0.07364487 -0.036019098 0.04980408
0001c0 0a 23 b3 bd 0e e8 ca bd 05 7b 82 bd 79 98 95 bd
       -0.087469175 -0.09907542 -0.0637112 -0.073044725
0001d0 23 79 4d bc 36 30 6d 3d 2b 30 c7 3e f5 68 1e 3e
       -0.012541088 0.057907306 0.38903937 0.15469725
0001e0 1c 0d a9 bd 7e 6b 92 3d ab 30 66 3e b2 00 d3 3c
       -0.082544535 0.07149409 0.22479503 0.025757167
0001f0 f6 57 eb bb fa 04 6a bd 92 3c f1 bd b8 09 4d bd
       -0.0071821166 -0.057133652 -0.11779131 -0.050058097
000200 e7 4a b0 3b 43 22 4a bd 46 f8 86 bd cf 14 a8 3d
       0.005380023 -0.04934908 -0.06590323 0.08207094
000210 a6 8a 88 3b a7 72 15 bd 88 a0 67 bd da 0f 3f bd
       0.004166919 -0.036486294 -0.05654958 -0.046645977
000220 8a 33 ad 3d 0d 72 c5 bc 7b bb cd 3d 56 94 c6 3d
       0.08457096 -0.024102235 0.10045525 0.096962616
000230 f3 3f 03 bd f5 ba 70 bd 42 1d aa 3d a8 30 a5 3d
       -0.03204341 -0.058772046 0.08306362 0.08065921
000240 10 05 be 3b 2a 2a b8 3c ca cd 49 3d 85 1f e6 bd
       0.0057989433 0.022481043 0.04926852 -0.112364806
000250 fe c2 0d 3d eb 55 4a 3d 04 3c 1b 3c b5 92 30 be
       0.034609787 0.049398344 0.009474758 -0.17243464
000260 f7 bb 81 3d 74 9b 1d 3e 98 79 e8 3d d6 6a f4 3d
       0.063346796 0.15391332 0.11351317 0.1193444
000270 eb eb 24 bd f6 0a 2a bd c2 19 79 bc 72 c6 33 bd
       -0.04026405 -0.04151436 -0.015203895 -0.043890424
000280 7e dc cf bc ea a8 a5 3d a0 91 9c bc 6b 1e 90 3c
       -0.025373694 0.080888584 -0.019112408 0.01759263
000290 de d8 00 3d 9a 4e 21 3d 38 37 af ba 33 4b ba bc
       0.03145682 0.0393816 -0.0013367897 -0.022740936
0002a0 65 87 f6 3d 32 a4 62 bc 10 84 cd bc c0 68 3b bb
       0.12037543 -0.0138330925 -0.025087386 -0.0028596371
0002b0 35 b8 2e 3c 2b cf 5b bd 10 fc ca bd ee 16 59 bd
       0.010664036 -0.053664368 -0.09911358 -0.053000383
0002c0 75 21 a3 3d 66 f0 1a 3c 16 e3 c2 bd 0b 0f a6 3c
       0.07965366 0.0094567295 -0.095159695 0.020270845
0002d0 0f cc b2 3c fa 0b 79 bd 4a 29 eb bd 68 ca 49 bd
       0.021825818 -0.060802437 -0.11482485 -0.049265295
0002e0 07 ab 8d bd 86 3f 01 3b cf 53 38 bd be 1b 44 bd
       -0.069173865 0.00197217 -0.0450018 -0.04787802
0002f0 d1 a4 a1 bc b1 56 14 bb 7a f7 20 bd 28 33 d7 3b
       -0.01973191 -0.002263468 -0.039298512 0.0065673776
000300 6b ad f9 3b 7b 02 29 bd c5 4f 17 3d f0 b9 04 bd
       0.00761955 -0.04126213 0.03694131 -0.032403886
000310 87 82 2d bd 8d a0 63 be cd 7a 10 bd 86 3e 95 bd
       -0.04236081 -0.22229214 -0.035273362 -0.07287316
000320 26 23 a2 bd 4b 1a 4a bd d8 30 60 3c a6 f3 da b9
       -0.0791686 -0.04934148 0.01368352 -0.00041761732
000330 0f e5 ac 3c 53 9f f2 3d 18 d2 ac bd d6 62 af 3d
       0.021105317 0.11846795 -0.0843851 0.08563773
000340 7e 02 b1 bc 22 73 3d 3b 68 42 4c 3d fa a0 8e bd
       -0.021607634 0.0028907736 0.049868017 -0.069642976
000350 6e 13 bb bd d5 d2 29 3b b3 df f6 3d 5b 29 c0 bb
       -0.09134565 0.002591302 0.12054386 -0.005864305
000360 bd 31 2c bd 7a 24 fb bd 6f 59 3f 3e 42 75 5b 3d
       -0.04203962 -0.12262817 0.1868646 0.053578623
000370 55 ca ad 3c 83 31 e7 bd 3a a1 07 bc 46 58 fa bc
       0.021214643 -0.112887405 -0.0082781855 -0.03055967
000380 e7 88 46 3d ad f8 72 3d a6 da 4c bd bc 31 ab bc
       0.048470404 0.059319187 -0.050013207 -0.020897739
000390 4e 8c 31 3d dc c8 b3 bb c2 8e b8 3d 54 46 80 3d
       0.043346696 -0.005486591 0.09011604 0.06263414
0003a0 4f 89 83 bd 36 44 e2 bd b7 64 a1 bc 6d b4 ec bb
       -0.06422674 -0.110481665 -0.019701345 -0.007223657
0003b0 56 c2 0e bd 52 9b cc bd 3e 4f 78 bd d1 3a 8d bd
       -0.034853302 -0.099905625 -0.060622446 -0.06895984
0003c0 93 4d 85 be 7b 3f d0 bd 32 be a4 bd 18 3c 25 bd
       -0.26035747 -0.10168358 -0.080440894 -0.040340513
0003d0 f2 20 14 be 46 3f 58 bd c0 eb 7a bc 02 b5 91 3d
       -0.14465693 -0.052794717 -0.015314996 0.071146026
0003e0 6d 9a 01 bd fa ca 6a 3e 4a 20 93 3e 36 b6 fd 3d
       -0.031641413 0.22928992 0.28735572 0.123882696
0003f0 a1 29 bf bd 2b 20 5a 3d a5 8b 2f 3e f0 94 38 bd
       -0.09334112 0.053253334 0.17143114 -0.045063913
