Model Inversion/Tumor Inversion/Research Summary/models/fedavg_global_model.pth (torch, 646411 bytes, 25 tensors)

encoder.0.weight f4 [128, 104]
0	0xbc899659	-0.016795324
1	0xbc1794d3	-0.009251791
2	0xbc6e6f79	-0.014552944
3	0x3bffcfc7	0.0078067514
4	0xbd048d03	-0.03236104
5	0x3c0c434a	0.008560965
6	0x3cae4809	0.021274583
7	0x36194b2a	2.2842528e-06
8	0xbbbd64a7	-0.005779821
9	0xbcf6c183	-0.03012157
10	0x3c171b65	0.00922284
11	0x3d29b51c	0.041432485
12	0xbd529813	-0.05141456
13	0xbbe6b849	-0.0070410115
14	0x3bf8f54a	0.0075976
15	0x3c3c223c	0.0114827715
16	0x3b954e87	0.0045564803
17	0xbb7d795f	-0.003867708
18	0xbcab1d3a	-0.02088796
19	0xbca74684	-0.020419367
20	0xbc8da4b4	-0.01729045
21	0xbd00e1f2	-0.03146548
22	0xbc9db07e	-0.019249197
23	0xbc663b1e	-0.014052181
24	0x3c83cc97	0.016088767
25	0xbb06bcb4	-0.0020559253
26	0xbc7cba53	-0.0154252825
27	0xbcf07ce5	-0.02935643
28	0xbbe3da6a	-0.006953527
29	0xbc213849	-0.00984008
30	0x3bdb9e39	0.006702211
31	0xbb8c711c	-0.0042859446
32	0xbc1a788d	-0.009428156
33	0xbc11ee1c	-0.008906867
34	0xbcc677a1	-0.024226965
35	0x3caf17c8	0.021373644
36	0xbc14bcc6	-0.00907821
37	0x3c11fd67	0.0089105135
38	0x382e357c	4.1534644e-05
39	0x3bc45916	0.005992065
40	0x3cb281b7	0.021790368
41	0xbc957725	-0.01824529
42	0x3d06a980	0.03287649
43	0xbd07842e	-0.03308504
44	0x3aea9fd8	0.001790042
45	0x399d31dc	0.00029982522
46	0xbd05fb04	-0.03271009
47	0x3b5292b9	0.003213091
48	0xbbd6d13f	-0.006555706
49	0x3cf4fb90	0.02990511
50	0x3c14f2e1	0.00909111
51	0xbd138211	-0.036012713
52	0xbc40f4c4	-0.011777107
53	0x3b5a4d3c	0.0033310195
54	0xbcc4973c	-0.023997895
55	0x38a2d0a4	7.763624e-05
56	0x3a03c0e9	0.0005025999
57	0xbd0dab7d	-0.034587372
58	0x3c4f6e80	0.012660623
59	0x3bb109d6	0.005402784
60	0x3c947790	0.018123418
61	0x3d0a320c	0.033739135
62	0x3c8972bb	0.01677834
63	0xbc869a2a	-0.016430933
64	0x3c99b41e	0.018762644
65	0x3be73d31	0.007056855
66	0xbc1e3dd4	-0.009658296
67	0xbc85e6e6	-0.016345453
68	0xbcf8493c	-0.030308358
69	0xbb18e178	-0.002332775
70	0x3bfce6ff	0.0077179666
71	0xbc8c3cc7	-0.017118825
72	0xbb887973	-0.0041648685
73	0xbb2c3a17	-0.0026279741
74	0x3bb131b7	0.005407538
75	0x3c22a079	0.009925955
76	0xbd19014f	-0.037354764
77	0x3cae1439	0.021249877
78	0xbd003ea7	-0.03130975
79	0x3b919e38	0.00444391
80	0xbce49d77	-0.027907116
81	0xba2e77d6	-0.000665543
82	0xbc344896	-0.011003634
83	0xbc042e94	-0.008067746
84	0xbbe06dc0	-0.0068490207
85	0xbcab7633	-0.020930385
86	0xbcb409da	-0.021977354
87	0xbce65e3c	-0.028121106
88	0xbc1c743b	-0.009549196
89	0x3c5f96b0	0.013646767
90	0xbc134316	-0.0089881625
91	0x3b30c05e	0.0026970129
92	0x3cc85ac1	0.024457337
93	0xbc3c2b2f	-0.011484905
94	0x3cc5a0eb	0.024124583
95	0xbc9fe027	-0.019516064
96	0xb88f695b	-6.838395e-05
97	0x3c0351f6	0.0080151465
98	0xbb077db2	-0.0020674285
99	0xbcbdd677	-0.023173554
100	0xbd08e98c	-0.033425853
101	0x3ce1fb80	0.027585745
102	0x3b8a441a	0.004219544
103	0xbd591c4d	-0.053005505
104	0xbcf5d001	-0.03000641
105	0xbc28264f	-0.01026304
106	0xbae3a2f7	-0.0017367293
107	0xbd43167f	-0.047628876
108	0xbcc235e8	-0.023707345
109	0xbc83977d	-0.016063446
110	0xbcb4cd82	-0.02207065
111	0xbc54166a	-0.012944797
112	0x3d1403f6	0.03613659
113	0xbacd28cc	-0.0015652417
114	0x3bc31c2e	0.005954287
115	0x3ccc0ae5	0.024907539
116	0x3d23e037	0.04000875
117	0xbc9bb267	-0.019005967
118	0x3ce5ee12	0.028067622
119	0xbc5a739b	-0.013333227
120	0x3c4ff225	0.012692009
121	0x3ca8668a	0.020556707
122	0xba6da5d6	-0.0009065544
123	0xba673277	-0.00088194705
124	0xbc936f5a	-0.017997433
125	0xbc401ef7	-0.011726133
126	0x3cfcd2c3	0.030862218
127	0xbc99b5ce	-0.018763449
128	0x3bca2f87	0.0061702165
129	0x3c2b73f9	0.010464662
130	0xbacbb74d	-0.0015542299
131	0x39ce3ab7	0.00039335128
132	0x3b09631a	0.002096361
133	0x3c2aa5ca	0.010415504
134	0x3cacc6df	0.021090923
135	0x3d277011	0.04087836
136	0x3c9c8610	0.019106895
137	0x3c1c370f	0.009534611
138	0xba8e471a	-0.001085493
139	0x3a02ebc4	0.0004994238
140	0xbc0e8a06	-0.0086999
141	0x3810eb27	3.4551278e-05
142	0xbb03cb1c	-0.0020110076
143	0x3c29457c	0.010331508
144	0xbb7901df	-0.00379955
145	0x3d02cf1d	0.0319358
146	0xbba5b675	-0.005057151
147	0xbd73753f	-0.059437986
148	0xbb7915bf	-0.0038007346
149	0x3b9efe46	0.004852089
150	0x3c805d9e	0.01566964
151	0x399527d9	0.00028449183
152	0x3cc186cc	0.023623846
153	0x3affccc3	0.001951598
154	0x3c5e578a	0.013570676
155	0x3cfdf8d9	0.031002449
156	0x3ab04775	0.001344903
157	0xbd03c2ff	-0.032168385
158	0x3c42567d	0.011861441
159	0xbc4d06d0	-0.012513831
160	0xbd01e111	-0.03170878
161	0xbb00c0b6	-0.0019646115
162	0xbbf53a61	-0.007483766
163	0x3b5e581b	0.0033927027
164	0xbce9641f	-0.028490124
165	0xbb257e9f	-0.0025252474
166	0x3c923041	0.017845275
167	0x3c5d3cad	0.013503236
168	0x3c1ea2b5	0.009682347
169	0xbb068d00	-0.002053082
170	0xbb551927	-0.0032516213
171	0xbd0f213a	-0.034943797
172	0xbc0e1533	-0.0086720465
173	0xbbd6f01b	-0.0065593845
174	0x3ba768c3	0.005108924
175	0xbbcad6a8	-0.00619014
176	0x3d04dd06	0.032437347
177	0xba91ba6a	-0.0011118178
178	0x3c3258ab	0.010885398
179	0x3c8d7364	0.017266937
180	0x3c3b1e1f	0.011420756
181	0x39c1a4fd	0.00036934754
182	0x3b97401c	0.0046157967
183	0xbb390f32	-0.0028237817
184	0x3aaf60db	0.0013380306
185	0x3c2f2657	0.010690293
186	0x3c31f3bf	0.010861336
187	0x3c46d9fd	0.012136933
188	0xbad2d030	-0.0016083773
189	0xbc785acf	-0.015158369
190	0x3c50793a	0.012724215
191	0x3c907daa	0.017638046
192	0xbaaa7510	-0.0013004858
193	0xbc850bac	-0.016240917
194	0x3c409a9b	0.011755611
195	0x3b46b9b0	0.003032308
196	0xb7d9665f	-2.5916086e-05
197	0x3bc141f0	0.005897753
198	0xbc8fc7c3	-0.017551308
199	0x3c4a2c44	0.012339655
200	0x3bafbaa3	0.005362825
201	0xbbab6c16	-0.0052313907
202	0xbd04b039	-0.03239462
203	0x3d09403b	0.03350852
204	0xbc9ade5c	-0.018904857
205	0x3d09b10c	0.03361611
206	0x3d7c2a68	0.06156388
207	0x3cdbe674	0.026843287
208	0x3c2bd2c4	0.010487262
209	0xbc2df9b9	-0.010618621
210	0xbb9d1699	-0.0047939536
211	0xbd399613	-0.045309138
212	0x3c332432	0.010933923
213	0xbd537a1b	-0.05163012
214	0x3c99f2d8	0.018792555
215	0x3d81ab01	0.063314445
216	0x3c21c2eb	0.009873132
217	0x3d2089b6	0.03919383
218	0x3c6a9544	0.014317814
219	0x3baae5fa	0.0052154036
220	0xbbea56b0	-0.0071514472
221	0xbc8f5fe6	-0.017501783
222	0xbbc37d4f	-0.0059658657
223	0xbb690849	-0.0035557917
224	0xbcf72cc4	-0.030172713
225	0xbc9765e7	-0.018481208
226	0xbb09bba7	-0.002101639
227	0xbd10dd1d	-0.03536712
228	0x3b85cd2d	0.0040832967
229	0x3b810d19	0.003938329
230	0x3c99b1cd	0.01876154
231	0x3b5d7b92	0.0033795577
232	0xbc810682	-0.015750173
233	0xba003976	-0.0004891375
234	0xbca82ede	-0.02053016
235	0xbc037db0	-0.008025572
236	0xbc986dfc	-0.018607132
237	0x3c2a3a31	0.0103898505
238	0x3bcad5ed	0.0061900527
239	0x3b5843b6	0.0032999343
240	0xbc8c1cd3	-0.017103588
241	0x3af724b1	0.0018855539
242	0xbd0ba8c6	-0.0340965
243	0xbd4038ab	-0.046929043
244	0xbc0e1f4b	-0.008674453
245	0x3b406803	0.002935887
246	0xbce4e404	-0.027940758
247	0xbb9463bd	-0.0045284913
248	0x3c6849b9	0.014177733
249	0xbcd3bb0f	-0.025846032
250	0xbc001239	-0.007816845
251	0xbd4d5956	-0.050134026
252	0xbbf14e87	-0.0073640975
253	0x3c8326d1	0.01600972
254	0x3c9965ef	0.018725364
255	0x3becf001	0.007230759

encoder.0.bias f4 [128]
0	0xb28f5d92	-1.6689942e-08
1	0x31ef4a96	6.964295e-09
2	0xb28872f3	-1.5884757e-08
3	0xb18f5fa4	-4.172721e-09
4	0xb1f51280	-7.1325417e-09
5	0xb17adb3c	-3.6504408e-09
6	0xb229066f	-9.8385575e-09
7	0x319868d7	4.435701e-09
8	0xb1efed7f	-6.9828157e-09
9	0x323dd1cd	1.1048951e-08
10	0x320d94b9	8.241096e-09
11	0xb1a9f75f	-4.94667e-09
12	0xb0d7d371	-1.5703404e-09
13	0x32196947	8.929709e-09
14	0x312081a1	2.335675e-09
15	0x3269a2ca	1.3599399e-08
16	0xb2d74ee2	-2.5065166e-08
17	0x2f272557	1.5201827e-10
18	0x324b8650	1.1846694e-08
19	0x313ccb0d	2.7473022e-09
20	0xb232240a	-1.0369158e-08
21	0xb2f09d64	-2.801125e-08
22	0xb1938bf1	-4.2941726e-09
23	0xb20c1cad	-8.155593e-09
24	0xb0a95059	-1.2319205e-09
25	0xb1aeeae8	-5.0907722e-09
26	0xb200093a	-7.4526785e-09
27	0x30f0602d	1.7489633e-09
28	0x32a94333	1.9704748e-08
29	0xb2c697f3	-2.3119332e-08
30	0x31aa1920	4.9505076e-09
31	0x3201253e	7.517256e-09
32	0xb1cd54e7	-5.9759375e-09
33	0xb2c0ff06	-2.2467713e-08
34	0xb27a1d65	-1.4558599e-08
35	0x3264b96a	1.3313505e-08
36	0xaf9f287d	-2.89507e-10
37	0x3242b3d3	1.13331735e-08
38	0xb230d6b3	-1.0293365e-08
39	0xb152f0bd	-3.0695866e-09
40	0x30d3e6b1	1.5417837e-09
41	0x31162d4d	2.1853623e-09
42	0xb2d6458f	-2.494451e-08
43	0x32b1ab95	2.0683538e-08
44	0xb1bbabc4	-5.461944e-09
45	0xb233dc55	-1.0469269e-08
46	0xb0961734	-1.0920531e-09
47	0xb24f955f	-1.2082949e-08
48	0xb284d3ab	-1.5463078e-08
49	0x31c53644	5.739624e-09
50	0xb2a82b85	-1.9577564e-08
51	0x30c16047	1.4069962e-09
52	0xb229bddc	-9.880264e-09
53	0x323131bf	1.0314067e-08
54	0x303d8527	6.894702e-10
55	0x319c2d67	4.545359e-09
56	0xb0b25e15	-1.2977944e-09
57	0x31f7a1f3	7.2070576e-09
58	0xb29342c6	-1.7143417e-08
59	0x320a9c8d	8.068253e-09
60	0xb20ec5b6	-8.310442e-09
61	0xb25a6507	-1.2712241e-08
62	0xb188211d	-3.9618855e-09
63	0xb089dbbc	-1.0030514e-09
64	0xb23e9a2d	-1.1094511e-08
65	0xb1ff245e	-7.4256112e-09
66	0xb1a31692	-4.7464903e-09
67	0xb2619567	-1.3130694e-08
68	0x321664f0	8.7541e-09
69	0xb1393a3a	-2.6954141e-09
70	0x3229ca13	9.883041e-09
71	0xb1ed3d21	-6.9045574e-09
72	0x32a34e21	1.9011226e-08
73	0x328d366a	1.6439305e-08
74	0x308b1ee8	1.0122365e-09
75	0xb09ba82f	-1.1325535e-09
76	0x32f54844	2.8554616e-08
77	0xb18ca54a	-4.0933275e-09
78	0x31ac829a	5.0207065e-09
79	0xb1344c92	-2.6236973e-09
80	0xb240d600	-1.1224529e-08
81	0x313b0773	2.7216316e-09
82	0x31c14f44	5.6260507e-09
83	0x311cd96d	2.282458e-09
84	0x322247ba	9.44595e-09
85	0x31fa4baa	7.2845596e-09
86	0x327efda4	1.4842417e-08
87	0xb1b27bd8	-5.1945612e-09
88	0x31e32aea	6.6114483e-09
89	0x32f708a1	2.8758508e-08
90	0xb1d06507	-6.065082e-09
91	0xb1b6dc64	-5.3219527e-09
92	0x32ae4add	2.029031e-08
93	0xb1827f50	-3.7979717e-09
94	0xb21dc4a7	-9.183316e-09
95	0x310b88a0	2.0304824e-09
96	0xb12169ea	-2.3488789e-09
97	0xb18fb833	-4.182789e-09
98	0x2fb52b08	3.2954284e-10
99	0x30f4822a	1.7790331e-09
100	0x32037fc6	7.654256e-09
101	0xb08ec243	-1.0387072e-09
102	0xb2263d9e	-9.676482e-09
103	0xafc077df	-3.500977e-10
104	0x3290821f	1.6822979e-08
105	0xb12f56ea	-2.5515257e-09
106	0xb22a87b4	-9.926158e-09
107	0xb113d46d	-2.1512065e-09
108	0xb2afa7cf	-2.0448992e-08
109	0xb1e53edb	-6.671923e-09
110	0x321a9d12	8.999693e-09
111	0x326a1689	1.36257166e-08
112	0xaf14144c	-1.3467732e-10
113	0x325e6f52	1.2947412e-08
114	0x3233ee82	1.0473402e-08
115	0x324b1204	1.18202514e-08
116	0x31988975	4.4394093e-09
117	0xb14be9b3	-2.967323e-09
118	0xb1af5613	-5.102956e-09
119	0x30f7e073	1.8035408e-09
120	0xb15eebfd	-3.2439396e-09
121	0xb1be67ee	-5.5415432e-09
122	0x324dd4e8	1.198098e-08
123	0x3129eb24	2.4726399e-09
124	0xb2ac9d36	-2.0094927e-08
125	0x320988a6	8.00552e-09
126	0x32036b81	7.649647e-09
127	0xaf75dc39	-2.2360859e-10

encoder.1.weight f4 [128]
0	0x3f7dc13d	0.99122983
1	0x3f7ea00d	0.9946297
2	0x3f7fcf36	0.99925554
3	0x3f8012a1	1.0005685
4	0x3f7eb1fa	0.9949032
5	0x3f7fd421	0.9993306
6	0x3f807e5c	1.0038562
7	0x3f7fda56	0.9994253
8	0x3f80ad9a	1.0052979
9	0x3f7f4f6b	0.9973056
10	0x3f801b2f	1.0008296
11	0x3f80b350	1.0054722
12	0x3f7d65d6	0.98983514
13	0x3f80cd47	1.0062646
14	0x3f804c03	1.0023197
15	0x3f7fa5a8	0.99862146
16	0x3f7fc6a7	0.99912494
17	0x3f7e5f58	0.99364233
18	0x3f7fa5e4	0.99862504
19	0x3f7ecdab	0.99532574
20	0x3f7f4221	0.9971028
21	0x3f7fe0dc	0.99952483
22	0x3f7fe34f	0.9995622
23	0x3f7f1eb3	0.9965622
24	0x3f7f38ff	0.99696344
25	0x3f7e4a30	0.9933195
26	0x3f809bd3	1.0047554
27	0x3f8021f6	1.0010364
28	0x3f7f29f9	0.9967342
29	0x3f80661f	1.0031165
30	0x3f803290	1.001543
31	0x3f8032f8	1.0015554
32	0x3f80723a	1.0034859
33	0x3f80ac83	1.0052646
34	0x3f802133	1.0010132
35	0x3f7f4001	0.9970704
36	0x3f7d065b	0.9883782
37	0x3f7fc113	0.9990398
38	0x3f805aad	1.0027672
39	0x3f7f1b16	0.99650705
40	0x3f7f7f9e	0.99804103
41	0x3f7fbe18	0.99899435
42	0x3f7fc34d	0.9990738
43	0x3f7ea1c1	0.99465567
44	0x3f80041e	1.0001256
45	0x3f7f23c9	0.9966398
46	0x3f7faf5e	0.99876964
47	0x3f7f1ec3	0.99656314
48	0x3f7f393f	0.99696726
49	0x3f7eb165	0.9948943
50	0x3f7e8db3	0.99434966
51	0x3f803a33	1.0017761
52	0x3f7e5bc3	0.9935877
53	0x3f7e6c79	0.99384266
54	0x3f7f53cf	0.99737257
55	0x3f80370d	1.00168
56	0x3f7f9789	0.998406
57	0x3f7fb364	0.99883103
58	0x3f80453c	1.0021129
59	0x3f806649	1.0031215
60	0x3f8073fc	1.0035396
61	0x3f7d892a	0.9903742
62	0x3f7f7e0a	0.99801695
63	0x3f7ea4f3	0.9947044
64	0x3f7e2927	0.99281543
65	0x3f7f5d3c	0.9975164
66	0x3f7d091b	0.9884202
67	0x3f7d07eb	0.98840207
68	0x3f7eb756	0.994985
69	0x3f7efac1	0.9960137
70	0x3f7e22c6	0.9927181
71	0x3f7ef183	0.9958727
72	0x3f7fd593	0.99935263
73	0x3f7fbfe4	0.99902177
74	0x3f7f8741	0.99815756
75	0x3f7ee2d6	0.99564874
76	0x3f80475b	1.0021776
77	0x3f7ea1ab	0.99465436
78	0x3f80e80d	1.0070816
79	0x3f7ebdf7	0.99508613
80	0x3f7e77fc	0.9940183
81	0x3f7d4b71	0.9894324
82	0x3f7f6676	0.9976572
83	0x3f7ea127	0.9946465
84	0x3f7e13a8	0.99248743
85	0x3f7f01ae	0.9961194
86	0x3f7f37a7	0.99694294
87	0x3f7f72fa	0.99784815
88	0x3f7dab44	0.99089456
89	0x3f8014d0	1.0006351
90	0x3f7f61cd	0.9975861
91	0x3f7f28a1	0.9967137
92	0x3f804100	1.0019836
93	0x3f7ebfb1	0.9951125
94	0x3f803b7a	1.0018151
95	0x3f7fed00	0.9997101
96	0x3f808924	1.0041852
97	0x3f7f1f56	0.9965719
98	0x3f7eea96	0.995767
99	0x3f802d7b	1.001388
100	0x3f7fc383	0.999077
101	0x3f7da25f	0.99075884
102	0x3f7e0446	0.9922527
103	0x3f7e9ecd	0.9946106
104	0x3f7e0274	0.99222493
105	0x3f7fbb83	0.99895495
106	0x3f7fb022	0.9987813
107	0x3f7e7c67	0.9940857
108	0x3f7fe350	0.99956226
109	0x3f7f3c96	0.9970182
110	0x3f7ce9cd	0.9879425
111	0x3f804ad8	1.002284
112	0x3f7ecccd	0.9953125
113	0x3f7fd2a2	0.99930775
114	0x3f7f342d	0.9968899
115	0x3f7ea59f	0.9947147
116	0x3f7ff970	0.99989986
117	0x3f800481	1.0001374
118	0x3f7b49d6	0.9815954
119	0x3f7dba56	0.9911245
120	0x3f809ade	1.0047262
121	0x3f7e4bff	0.9933471
122	0x3f803372	1.00157
123	0x3f7dd931	0.9915953
124	0x3f7e666d	0.9937504
125	0x3f7f67a1	0.997675
126	0x3f7f4fae	0.99730957
127	0x3f804964	1.0022397

encoder.1.bias f4 [128]
0	0xbc51d803	-0.012807849
1	0xbcb65934	-0.022259332
2	0xbbeb6b4c	-0.0071844216
3	0xbbfc470d	-0.0076988996
4	0x3ae50241	0.0017471985
5	0xb9488c2a	-0.00019125702
6	0xbbf038bd	-0.0073309825
7	0xbbef9d8a	-0.0073124813
8	0xbbff5462	-0.0077920416
9	0xbc060698	-0.008180283
10	0xbc743736	-0.014905741
11	0xbb2c79b0	-0.0026317649
12	0xbc2462b6	-0.0100333
13	0x3c1d4823	0.009599718
14	0xbb596695	-0.0033172716
15	0xbc11bc6b	-0.00889502
16	0xbbe6aa79	-0.007039365
17	0xbc1fb835	-0.009748508
18	0xbb9e2827	-0.004826564
19	0xbc8d6403	-0.017259603
20	0xbb73cf8c	-0.0037202565
21	0x3a9dce9d	0.0012039725
22	0xbcb839d4	-0.022488512
23	0xbbee1fa8	-0.0072669573
24	0xbbf4b6a4	-0.0074680615
25	0xbc995a09	-0.01871969
26	0xb9d3bfb1	-0.00040387877
27	0xbbaa6068	-0.005199481
28	0xba935af9	-0.0011242322
29	0x3b2eb381	0.0026657286
30	0x3be819dc	0.007083161
31	0xbbafd491	-0.005365916
32	0x3b01c8e1	0.001980357
33	0x3af38f04	0.0018582051
34	0xbbd0d531	-0.0063730706
35	0x3ad8ebcc	0.0016549765
36	0xbc86f4b8	-0.016474113
37	0xbc165d3f	-0.009177505
38	0x3c2bff21	0.010497839
39	0xbc51a586	-0.0127958115
40	0xbc3b8daa	-0.01144735
41	0xbbc7cb1b	-0.00609721
42	0x3adbf980	0.0016782731
43	0xbb2f91a7	-0.0026789696
44	0xbba86d87	-0.00514001
45	0xbc126f68	-0.008937694
46	0xbc149f47	-0.009071178
47	0xbaa05730	-0.0012233015
48	0xbc48af55	-0.012248834
49	0xbbbede3c	-0.0058248322
50	0xbb46bdd8	-0.0030325558
51	0xbc7ac3aa	-0.015305439
52	0xbbfcc16b	-0.007713487
53	0xbc47d4e2	-0.012196751
54	0xbb363fd4	-0.002780904
55	0xbbc0b119	-0.0058804867
56	0xbc36ac9e	-0.011149554
57	0x3b10b305	0.002207936
58	0xbc100a7c	-0.008791562
59	0x3abd609b	0.0014448346
60	0xbc237d79	-0.0099786455
61	0xbc86f958	-0.016476318
62	0xbc70fe00	-0.014708996
63	0xbba24bfa	-0.004952905
64	0xbc9807f7	-0.018558485
65	0xbc15ed6d	-0.009150845
66	0xbc7472a7	-0.014919913
67	0xbc448e59	-0.011996829
68	0xbba723c2	-0.005100698
69	0xbc293753	-0.010328132
70	0xbb90b5c6	-0.0044162003
71	0xbb54456b	-0.003239001
72	0xbace6780	-0.0015747398
73	0x3b86e2e6	0.004116404
74	0xbbfa2710	-0.007634051
75	0xbc2452ff	-0.010029553
76	0xbbddc899	-0.006768298
77	0xbc1bf34e	-0.009518458
78	0x3b9c4943	0.0047694757
79	0xba1a8981	-0.00058951235
80	0xbc3bce16	-0.011462709
81	0xbc37de6e	-0.011222465
82	0xba237114	-0.00062348065
83	0xbc89ae9a	-0.01680689
84	0xbbacac94	-0.0052695964
85	0xbc1a548a	-0.00941957
86	0xbc7397fd	-0.01486778
87	0xbb257b4f	-0.00252505
88	0xbc319b6d	-0.010840279
89	0x3ba650f8	0.00507557
90	0xbbad212a	-0.0052834945
91	0x3b810a27	0.003937978
92	0xbb8c84cc	-0.0042882916
93	0xbbd26101	-0.006420255
94	0xbc6b685e	-0.014368145
95	0xba0073d3	-0.00049000717
96	0x3b0ab69e	0.0021165977
97	0xbc8aa0d3	-0.01692239
98	0xbc7357dc	-0.01485249
99	0xbbfbde3f	-0.007686406
100	0xbb198a84	-0.002342851
101	0xbc4d9116	-0.012546798
102	0xbc91e6ad	-0.01781019
103	0xbc9137a7	-0.017726732
104	0xbc9a3c39	-0.018827545
105	0xbc85efda	-0.016349722
106	0xbc14f1f0	-0.0090908855
107	0xbc517841	-0.012785018
108	0xbb5bb2a2	-0.0033523222
109	0xbc4590f0	-0.012058482
110	0xbcb1729d	-0.021661097
111	0xba6c500a	-0.00090146123
112	0xbb3a248f	-0.0028403138
113	0xbc09d2e7	-0.008412099
114	0xbc0207ec	-0.007936459
115	0xbc4a1518	-0.012334131
116	0xbc22a70a	-0.0099275205
117	0x3a3e73c7	0.0007265177
118	0xbcdece1b	-0.027197888
119	0xbcac796b	-0.02105399
120	0xbb782f1c	-0.0037869876
121	0xbc1022db	-0.008797373
122	0x3b2cd2d8	0.002637079
123	0xbc427b84	-0.011870269
124	0xbc9bd236	-0.019021135
125	0xbb539b81	-0.0032288732
126	0xbabf995f	-0.0014617852
127	0xbaef2cfd	-0.001824766

encoder.1.running_mean f4 [128]
0	0xbdda3d0a	-0.106561735
1	0x3ce5bb77	0.028043492
2	0xbdde91cf	-0.108676545
3	0x3d3b6d21	0.04575837
4	0x3dc2f901	0.0952015
5	0xbd867e46	-0.065670535
6	0x3c160d1c	0.009158399
7	0xbe01eecd	-0.12688752
8	0xbe1da066	-0.15393218
9	0xbd79bbab	-0.06096999
10	0x3c54bd2a	0.012984553
11	0xbd88ca4d	-0.06679211
12	0x3e17f4a4	0.14839417
13	0xbca39416	-0.019968074
14	0x3cb984bc	0.0226463
15	0x3d98cf6a	0.07461436
16	0xbd040f36	-0.03224107
17	0xbb356e2a	-0.002768407
18	0xbd12a8c6	-0.035805486
19	0xbc902b60	-0.017598808
20	0xbcf0d73d	-0.029399509
21	0xbe0f0d43	-0.13969903
22	0x3e0ccb96	0.13749537
23	0x3c14a527	0.0090725785
24	0xbaf9dabd	-0.0019062381
25	0x3e0f3a1c	0.1398701
26	0xbdbdb612	-0.09263243
27	0xbc7320d6	-0.014839372
28	0x3d4f9f19	0.050688837
29	0x3dcf017c	0.10107705
30	0xbcdee392	-0.027208123
31	0x3cafd0e2	0.021461908
32	0xbd71bf15	-0.05902012
33	0xbd8e1550	-0.06937659
34	0xbdbf67ab	-0.09345945
35	0xbe09fba6	-0.13474903
36	0x3e17b058	0.14813364
37	0xbddf782b	-0.10911592
38	0xbd4b27f6	-0.049598657
39	0xbd4fa0e1	-0.050690535
40	0x3d867f33	0.0656723
41	0x3b9acfc8	0.0047244765
42	0xbe1ea459	-0.15492381
43	0x3d492f36	0.04911729
44	0xbc93496e	-0.01797935
45	0x3d906b0c	0.070516676
46	0xbd99b99a	-0.07506104
47	0xbdb284d9	-0.08716745
48	0x3dbd6674	0.09248057
49	0xbbc75c89	-0.006084029
50	0x3e0135f9	0.12618245
51	0x3cceec81	0.025259258
52	0xbca2e611	-0.019885095
53	0x3d4f9cb7	0.050686564
54	0x3b1db878	0.002406625
55	0xbd07536b	-0.033038538
56	0x3db75911	0.08952535
57	0xbdd494ba	-0.1037993
58	0xbd52cc15	-0.05146416
59	0x3d418f8d	0.04725604
60	0x3ccbd653	0.024882471
61	0xbe1f51db	-0.15558569
62	0x3df927f1	0.12165821
63	0xbd80920d	-0.06277857
64	0x3d519f0a	0.051177062
65	0xbd4d75b6	-0.050161086
66	0x3d89cb0c	0.06728181
67	0xbd2bdd3c	-0.041959032
68	0x3d07c4f9	0.033146832
69	0xbd9b3764	-0.07578924
70	0xbd303380	-0.043017864
71	0x3baa2659	0.0051925597
72	0x3da8dd51	0.08245338
73	0x3d38fc79	0.04516265
74	0x3da4613c	0.080263585
75	0xbc985a7b	-0.018597832
76	0x3cce0176	0.025147181
77	0xbdba8e6d	-0.09109197
78	0x3cb61667	0.02222748
79	0xbda2b946	-0.07945494
80	0x3cdd0ed0	0.026984602
81	0xbceeaba7	-0.029134585
82	0x3d092a40	0.03348756
83	0xbd02f6f8	-0.03197381
84	0x3d65879e	0.056037538
85	0x3c9abbff	0.018888472
86	0x3d76f952	0.060296364
87	0x3de1faee	0.11034189
88	0x3d940abf	0.07228612
89	0xbdbad14a	-0.0912195
90	0xbd325e22	-0.043546803
91	0x3d4ee904	0.05051519
92	0xbb073757	-0.002063235
93	0xbdc3cce7	-0.095605664
94	0x3b12b461	0.0022385346
95	0xbd60e3de	-0.05490481
96	0xbdebbc71	-0.11510552
97	0xbc4b521e	-0.012409715
98	0xbde78e3f	-0.11306428
99	0xbd937447	-0.071999125
100	0x3ce7cccd	0.028295899
101	0x3d88037c	0.066412896
102	0xbae984ee	-0.0017816105
103	0x3c85d903	0.01633883
104	0x3e0a55a3	0.1350923
105	0xbd85df01	-0.06536675
106	0x3b97334b	0.004614269
107	0xbc9b6c6e	-0.018972602
108	0xbd2018b6	-0.039086066
109	0x3d67ee6a	0.056623854
110	0x3d85bd56	0.065302536
111	0x3cc44bd3	0.023961937
112	0xbc86b8b1	-0.01644549
113	0xbe4856fd	-0.19564433
114	0xbe3bf0b9	-0.18353547
115	0xbd188321	-0.03723443
116	0xbd5455aa	-0.051839508
117	0xbc86a644	-0.016436704
118	0xbcbc51c7	-0.022988213
119	0xbd9dda65	-0.07707671
120	0xbd2313a4	-0.039813653
121	0x3c8d56b3	0.017253255
122	0x3da267f3	0.07929983
123	0xbcffc384	-0.031221159
124	0x3dbb3615	0.09141175
125	0x3db4dba4	0.088309556
126	0xbdf5bff4	-0.11999503
127	0xbd0afc64	-0.033932105

encoder.1.running_var f4 [128]
0	0x3a94a960	0.0011341982
1	0x3ab7fe0f	0.0014037507
2	0x3b1421a6	0.0022603064
3	0x3a804496	0.0009786065
4	0x3a95d74f	0.0011431965
5	0x3a64cff4	0.0008728497
6	0x3ac8b893	0.0015313796
7	0x3a55a4f9	0.0008149888
8	0x3aae96c0	0.0013320073
9	0x3a80d793	0.0009829871
10	0x3a9651ed	0.0011468508
11	0x3a8d71db	0.0010791378
12	0x3a89622e	0.001048153
13	0x3a58c813	0.00082695595
14	0x3a76ea13	0.0009419035
15	0x3a83a8b5	0.0010044785
16	0x3a5bfe87	0.00083921145
17	0x3a93cb25	0.0011275752
18	0x3a7a6570	0.00095518585
19	0x3a9831d6	0.0011611532
20	0x3a794db6	0.0009510176
21	0x3ab7ff10	0.0014037807
22	0x3b4cf6e5	0.003127509
23	0x3a6c6453	0.0009017635
24	0x3a9dd94f	0.0012042912
25	0x3ace88ab	0.0015757283
26	0x3a7047c7	0.0009165969
27	0x3a6c6647	0.0009017926
28	0x3a7d4ef0	0.00096629467
29	0x3a83b978	0.0010049781
30	0x3a65da1e	0.0008768159
31	0x3a5b6661	0.00083694427
32	0x3a9f2b71	0.0012143684
33	0x3a7ac598	0.0009566187
34	0x3a871af0	0.0010307711
35	0x3af9f441	0.0019069986
36	0x3b05bd07	0.0020406859
37	0x3a60d2cd	0.00085763336
38	0x3a8b2e08	0.0010618577
39	0x3ac5f7f1	0.00151038
40	0x3ab09430	0.0013471898
41	0x3a55f0ff	0.00081612164
42	0x3a9f935a	0.0012174651
43	0x3a817f07	0.0009879776
44	0x3a5a68d0	0.00083316583
45	0x3aab42f3	0.0013066217
46	0x3aa191b8	0.0012326753
47	0x3a7e9b4c	0.0009712472
48	0x3a77afad	0.000944848
49	0x3acff000	0.0015864372
50	0x3aa5fa92	0.0012663177
51	0x3a92c76b	0.0011198347
52	0x3a748853	0.0009328175
53	0x3aa01c3d	0.0012215447
54	0x3a939773	0.0011260345
55	0x3a896e3f	0.0010485126
56	0x3abf03f6	0.0014573324
57	0x3ac59fc6	0.0015077523
58	0x3a6e59e7	0.0009092376
59	0x3a7a85ca	0.0009556679
60	0x3ad22e4d	0.0016035527
61	0x3aed278c	0.0018093451
62	0x3a740399	0.00093083974
63	0x3a9fa672	0.0012180342
64	0x3a7eb449	0.00097161956
65	0x3a8df616	0.0010830786
66	0x3a8b1553	0.0010611214
67	0x3ac3c799	0.0014936804
68	0x3aa2c901	0.0012419523
69	0x3ac24580	0.0014821738
70	0x3a950b35	0.0011371138
71	0x3aba43de	0.00142109
72	0x3a954e12	0.0011391065
73	0x3aacb5aa	0.0013176699
74	0x3a8e41db	0.0010853367
75	0x3b13fe70	0.0022582076
76	0x3aa2ad79	0.0012411318
77	0x3a8e9014	0.0010876679
78	0x3a744170	0.0009317612
79	0x3a90e137	0.0011053447
80	0x3a728184	0.0009250867
81	0x3ad8f28f	0.001655178
82	0x3acbfcad	0.0015562974
83	0x3aa88913	0.0012858234
84	0x3a9cb5f7	0.0011956085
85	0x3a84bc6a	0.0010126953
86	0x3b128cb5	0.00223617
87	0x3ab20b6a	0.0013583724
88	0x3ad16a55	0.0015977124
89	0x3a8e9c6d	0.0010880359
90	0x3a7b241e	0.0009580272
91	0x3a6610b1	0.0008776291
92	0x3a8e1908	0.00108412
93	0x3a97f914	0.0011594617
94	0x3a7230b3	0.0009238824
95	0x3a8c5db0	0.0010709073
96	0x3a91811c	0.00111011
97	0x3aa886af	0.0012857522
98	0x3a5d18dc	0.00084341853
99	0x3ab234b6	0.0013596031
100	0x3ab3dffb	0.0013723368
101	0x3a78d0cf	0.0009491564
102	0x3a9d830a	0.0012017202
103	0x3a908aff	0.0011027752
104	0x3a9be9c9	0.0011895235
105	0x3a929fc3	0.0011186529
106	0x3a90ffb1	0.001106253
107	0x3a97fb69	0.0011595312
108	0x3aced6f0	0.0015780609
109	0x3a671906	0.00088156795
110	0x3a804c0f	0.0009788292
111	0x3ab7c3b6	0.0014020118
112	0x3a946144	0.0011320491
113	0x3ae5e45e	0.0017539372
114	0x3ae2001f	0.0017242468
115	0x3a85fa25	0.0010221644
116	0x3a8fdf44	0.0010976573
117	0x3a6ddddf	0.0009073894
118	0x3a87d039	0.0010361738
119	0x3b0cf4ed	0.0021508292
120	0x3a859d8d	0.0010194049
121	0x3a96d690	0.0011508036
122	0x3a3f7c6a	0.0007304611
123	0x3aa6f947	0.0012739085
124	0x3a9ba0db	0.00118735
125	0x3a8ba19e	0.0010653024
126	0x3a8019d9	0.0009773328
127	0x3a69688a	0.0008903822

encoder.3.weight f4 [256, 128]
0	0xbc43b373	-0.0119446395
1	0xbc99b9e6	-0.018765401
2	0x3a9e2fc9	0.0012068684
3	0xbc907976	-0.017636042
4	0xbcbaacec	-0.022787534
5	0x3bb07a41	0.0053856676
6	0xbc2fdf10	-0.010734335
7	0xbc81fd18	-0.015867755
8	0xbd2277ba	-0.03966496
9	0xbcbed670	-0.023295611
10	0xbbcdbfea	-0.0062789815
11	0xbceb0b15	-0.028691808
12	0x3c38e330	0.0112846345
13	0xbb0fbe02	-0.0021933322
14	0xbc4f2d1e	-0.012645034
15	0xbc57ab06	-0.013163334
16	0xbc950ef1	-0.018195601
17	0x3b482b40	0.0030543357
18	0x3c04f50b	0.008115063
19	0x3ca666c4	0.020312674
20	0x3c86af2d	0.016440952
21	0x3cd1aa5e	0.025593933
22	0x3c9d70a4	0.01921875
23	0xbb42803f	-0.0029678491
24	0x3ce8c019	0.028411912
25	0xbbd20943	-0.0064097955
26	0xbbb13a53	-0.005408564
27	0x3c13b95c	0.009016361
28	0x3c96ff9b	0.018432429
29	0x3c4c7625	0.01247934
30	0xb9fedf21	-0.000486129
31	0xbc61df4a	-0.013786146
32	0xbbe0798d	-0.0068504275
33	0x3cf3daaa	0.029767353
34	0xbbdc8c9c	-0.006730629
35	0xbd038d9f	-0.032117482
36	0x3bd6a9b9	0.0065509942
37	0xbc8e6894	-0.017383851
38	0x3b5ba586	0.0033515408
39	0x3cbc0529	0.02295168
40	0xbc815b16	-0.015790503
41	0xbd1c752a	-0.038197674
42	0x3caac7e2	0.020847265
43	0x3d03d639	0.03218672
44	0x3a86d2d1	0.0010286217
45	0xbc8e3b99	-0.017362403
46	0xbcf4ade8	-0.029868081
47	0x3c59b180	0.013286948
48	0x3c04e7db	0.008111919
49	0xbc8eac06	-0.017416012
50	0x3c32eafc	0.010920282
51	0x3cf70a64	0.030156322
52	0x3b597edc	0.0033187186
53	0x3bb18f84	0.0054187197
54	0x3a957932	0.0011403917
55	0xbcc95487	-0.024576439
56	0x3c0862e5	0.00832436
57	0x3a3066b9	0.0006729174
58	0xbd0002bd	-0.03125261
59	0xbc8b1851	-0.016979368
60	0x3c419341	0.011814893
61	0x3b948f07	0.0045336518
62	0x3cf729fc	0.030171387
63	0x3bfa9b96	0.007647942
64	0x3ce258de	0.027630266
65	0xbb34d55c	-0.0027592992
66	0xbc19a130	-0.009376809
67	0x3cc2e7e5	0.023792217
68	0x3af622c3	0.001877867
69	0x3c0a91f6	0.008457651
70	0xbc7f81d0	-0.015594915
71	0x3ad08977	0.0015910108
72	0xbc8863c9	-0.016649144
73	0x3c476f76	0.01217257
74	0xbc895479	-0.016763913
75	0x3c0de759	0.008661115
76	0x3c603b87	0.013686067
77	0xbb0b8844	-0.0021290937
78	0xbaa6a03d	-0.001271255
79	0xbc2cf4fa	-0.010556454
80	0x3ca4b8de	0.020107683
81	0xbb99339f	-0.004675343
82	0xbcec03a4	-0.02881033
83	0x3ae4f81c	0.0017468962
84	0xbb3286aa	-0.002724091
85	0xbb9686fa	-0.004593727
86	0x3c9eb74a	0.019374508
87	0x3d1c6c59	0.038189266
88	0x3bb609d6	0.0055553718
89	0x3ccce115	0.025009671
90	0x3c4dc179	0.0125583345
91	0x3c48bf27	0.0122526055
92	0x3bba29ea	0.005681266
93	0x3bfc3070	0.007696204
94	0xbc05e2dc	-0.008171763
95	0x3bf409b1	0.0074474444
96	0x3ca0d359	0.019632028
97	0xbc18d137	-0.009327224
98	0x3c1a4b56	0.009417376
99	0x3ca34a13	0.019932782
100	0x3a5deb25	0.000846552
101	0xbc387cd3	-0.011260229
102	0xbc8dd1cc	-0.017311953
103	0x3c974865	0.018467138
104	0xbcd21584	-0.025645025
105	0x3cbd4c2d	0.023107613
106	0xbcbb4962	-0.02286214
107	0xbb813058	-0.0039425306
108	0x3cc9f433	0.024652576
109	0xbc2be1a6	-0.0104908105
110	0x3cb9b560	0.022669494
111	0xbc8b10bd	-0.016975755
112	0xb9a90a18	-0.00032241712
113	0xbd176ca7	-0.036968853
114	0xbd031861	-0.03200567
115	0x3b1898fe	0.002328455
116	0x3cab5ed0	0.020919234
117	0xbc15b1f6	-0.0091366675
118	0x3c19980d	0.009374631
119	0xbc977325	-0.018487522
120	0x3c03c86d	0.008043391
121	0xbc46f4ea	-0.012143353
122	0xb9985c90	-0.00029060664
123	0x3b3a76a8	0.0028452072
124	0xbcbbdc47	-0.022932185
125	0x3c3c24e3	0.011483404
126	0xbb912746	-0.0044297306
127	0xbc188e00	-0.009311199
128	0xb9d52522	-0.00040654192
129	0xbbbbc2fd	-0.0057300315
130	0x3caade83	0.020858055
131	0x3a1d8296	0.00060085335
132	0xbbdb0747	-0.006684217
133	0xbac79ad3	-0.0015228636
134	0x3cc7b24d	0.024377013
135	0xbb2e2e64	-0.0026577944
136	0xbcb00779	-0.021487938
137	0xbc18464b	-0.009294103
138	0xbbf95624	-0.0076091457
139	0xbd0ab636	-0.033865176
140	0xbc9ab24f	-0.018883852
141	0x3d1b21be	0.037873976
142	0x3caada0c	0.020855926
143	0xbc664a53	-0.014055806
144	0xbc5adf1f	-0.01335886
145	0xbd1c7304	-0.038195625
146	0xbc92ef67	-0.017936422
147	0xbcb06cbb	-0.021536222
148	0x3a499f70	0.00076912995
149	0x3a4bffb4	0.0007781938
150	0xbca9b82d	-0.020717705
151	0x39a8cc3c	0.00032195623
152	0xbc8c24a7	-0.017107321
153	0xbc1e6b0a	-0.009669075
154	0x3a1819e9	0.0005802201
155	0xbc9a2373	-0.018815732
156	0x3bd2fdf1	0.0064389636
157	0x3c3e6363	0.011620375
158	0xbb5467f1	-0.0032410587
159	0xbc15808a	-0.009124884
160	0x3bb77a9b	0.0055993325
161	0xbc880200	-0.016602516
162	0xbc83ec8d	-0.016104007
163	0xbb7238a8	-0.003696004
164	0xbb76708a	-0.00376037
165	0x3c2fec84	0.010737542
166	0x3d34c53e	0.044133417
167	0xbce7e006	-0.028305065
168	0x3caa3e1e	0.020781573
169	0x3c060174	0.008179057
170	0x3b3ee2a7	0.0029126795
171	0x3bd62631	0.0065353145
172	0x3c80932a	0.015695173
173	0xbbda5e7a	-0.0066640945
174	0x3ab4afa3	0.0013785254
175	0x3a121622	0.0005572756
176	0x3c44f6f0	0.012021765
177	0x3b2061d6	0.0024472377
178	0x3b636774	0.0034699114
179	0x3d017a0a	0.031610526
180	0x3bbcc367	0.0057605985
181	0xbcf1e1f6	-0.029526692
182	0xbafddc86	-0.0019368089
183	0x3c9f87e4	0.019473977
184	0xbcedc9cf	-0.029026894
185	0xbca6072b	-0.02026709
186	0xbc668c4d	-0.014071536
187	0xbc8e5924	-0.01737649
188	0x3ceffa93	0.029294288
189	0x3ab12af5	0.001351683
190	0x3b43cf1b	0.0029878083
191	0xbc2edc63	-0.0106726615
192	0xbbf2c90d	-0.007409221
193	0x3d0de326	0.034640454
194	0xbb2cbbdc	-0.002635709
195	0xbc11aa44	-0.008890692
196	0xbbb90d52	-0.00564734
197	0x3b929c8d	0.0044742287
198	0xbc479dc1	-0.012183608
199	0xbd2fde17	-0.04293641
200	0xbc5b0410	-0.013367668
201	0x3c39f904	0.011350874
202	0x3c842e16	0.016135257
203	0x3c8ab03d	0.01692974
204	0x3c3fde73	0.011710751
205	0xbbdd523a	-0.006754187
206	0xbcd9753d	-0.026545161
207	0xbcd63d3a	-0.026152242
208	0xba62c867	-0.0008651078
209	0x3c66348c	0.014050614
210	0xbd21ff0a	-0.039549865
211	0x3cbcbbc7	0.023038758
212	0x3cf99d1f	0.030470429
213	0x3aaf63bc	0.0013381164
214	0x3d5e9367	0.054339793
215	0x3c61ee87	0.0137897795
216	0xbd0fa82e	-0.035072498
217	0xbad43cd2	-0.0016192442
218	0xbc8fdbe4	-0.017560907
219	0xbcd0db13	-0.025495088
220	0xbc2c2d76	-0.010508886
221	0xbb7fc0a2	-0.003902473
222	0xbccbdc5f	-0.024885355
223	0xbce09303	-0.02741385
224	0xbc3e192e	-0.011602683
225	0xbae3cb74	-0.0017379359
226	0x3c52feb6	0.012878111
227	0x3c16468a	0.009172091
228	0xbc6a1c36	-0.014288953
229	0xbbaae47f	-0.005215227
230	0xbb9b2b3f	-0.00473538
231	0xbcacd3ea	-0.021097142
232	0xb96d6b77	-0.00022642115
233	0xbcc6cf9f	-0.024268923
234	0x3cc9a3c0	0.024614215
235	0x3ac49bfd	0.0015000101
236	0xbadb355e	-0.0016724279
237	0xbcbe684d	-0.023243094
238	0xbbcd0539	-0.006256726
239	0xbc239a50	-0.009985521
240	0x3c866a55	0.016408125
241	0x3c4f66ed	0.012658817
242	0x3cccfa50	0.025021702
243	0x3c90e939	0.017689334
244	0xbc987678	-0.018611178
245	0x393baf58	0.0001789903
246	0x3c8e886f	0.017399041
247	0x3b1c5d3c	0.0023859283
248	0x3c946b9e	0.018117722
249	0x3bfa7559	0.0076433835
250	0x3b3443db	0.0027506265
251	0xbbc092f0	-0.0058768913
252	0x3c92165f	0.017832933
253	0xbb02ad36	-0.0019939668
254	0x3c3d91d0	0.011570409
255	0x3c9319c3	0.01795662

encoder.3.bias f4 [256]
0	0xaecfe14a	-9.4532895e-11
1	0xb03a8461	-6.785453e-10
2	0x2ff69407	4.485232e-10
3	0xb07ef5a1	-9.275372e-10
4	0x30f6bf96	1.7953308e-09
5	0xaf977eb5	-2.755677e-10
6	0xafa95564	-3.0801595e-10
7	0x3007a591	4.9348e-10
8	0xaff82289	-4.5135476e-10
9	0x30d3c0d2	1.5407073e-09
10	0x30ca7bca	1.4732617e-09
11	0x2f864ae0	2.442766e-10
12	0x2f671a5f	2.1018697e-10
13	0x307cf94c	9.203134e-10
14	0xb1145f95	-2.1591167e-09
15	0xb082b26d	-9.509457e-10
16	0xaf113b96	-1.3208842e-10
17	0xb052e112	-7.67174e-10
18	0x30999db0	1.1177033e-09
19	0x2fd827a5	3.931834e-10
20	0x2f3f9b25	1.7426467e-10
21	0x3046ac76	7.227706e-10
22	0x2e0777b1	3.0801754e-11
23	0x309a8533	1.1242832e-09
24	0x307b816b	9.149718e-10
25	0x2e05d396	3.0428625e-11
26	0xb0e63064	-1.6748456e-09
27	0x2ea640d7	7.560324e-11
28	0x30bb2888	1.361756e-09
29	0x3016c6df	5.4852295e-10
30	0xafff230f	-4.640914e-10
31	0xb09e89d7	-1.153519e-09
32	0x31435d5e	2.8429308e-09
33	0x30b244c1	1.2970746e-09
34	0x30e9cd00	1.7011246e-09
35	0x2fcb96f3	3.703274e-10
36	0x30a7a887	1.2198748e-09
37	0x303610fc	6.623535e-10
38	0x30a5e636	1.207076e-09
39	0x2ef56b37	1.1160355e-10
40	0x3089747c	1.0001169e-09
41	0xb066d841	-8.398083e-10
42	0xafaea833	-3.1769928e-10
43	0xb0fc59f1	-1.8360976e-09
44	0xaddf5a56	-2.5392282e-11
45	0xb0ac9a0e	-1.2558432e-09
46	0x30a7fc82	1.2222616e-09
47	0x31273aa2	2.4335027e-09
48	0x2f9bc091	2.8331162e-10
49	0x2fe9e21b	4.254311e-10
50	0x312e3b76	2.5354132e-09
51	0x2ea6a97b	7.578912e-11
52	0x30a6322a	1.2092347e-09
53	0x30851507	9.683e-10
54	0xb00acd06	-5.0495463e-10
55	0x30711747	8.770837e-10
56	0x2f91b60e	2.6504704e-10
57	0x30151861	5.424053e-10
58	0xafc378c4	-3.5556103e-10
59	0x2f9d538d	2.86175e-10
60	0xb0c1fc86	-1.411437e-09
61	0x313d65c3	2.7560965e-09
62	0x306fded9	8.726438e-10
63	0xb0780e7a	-9.0242447e-10
64	0x2f435a9b	1.7767336e-10
65	0xb1289193	-2.4529967e-09
66	0x305a502b	7.9421864e-10
67	0xb0727cb6	-8.821631e-10
68	0xaee72009	-1.05103544e-10
69	0xafc7bf18	-3.633367e-10
70	0xb081591f	-9.411315e-10
71	0xaf86f1da	-2.4546304e-10
72	0xaf8a9b8e	-2.5212582e-10
73	0x306d432a	8.6315544e-10
74	0x2f8cd9c9	2.5620597e-10
75	0xb07a8d03	-9.114986e-10
76	0xb0ae55e2	-1.2684576e-09
77	0x308a2a7a	1.0052894e-09
78	0xb0102b90	-5.24488e-10
79	0xb101493d	-1.8813602e-09
80	0xaef64512	-1.1199054e-10
81	0x2f62b527	2.0618939e-10
82	0xafdfc3de	-4.0702636e-10
83	0x30957937	1.0875628e-09
84	0x300f8727	5.221516e-10
85	0xb0213f90	-5.8661787e-10
86	0xafc39bcc	-3.5580994e-10
87	0x30e230c0	1.645752e-09
88	0x2f852fff	2.4226662e-10
89	0x300710fe	4.913686e-10
90	0x30991a33	1.1139661e-09
91	0xb0252def	-6.0091926e-10
92	0x2efce593	1.1500414e-10
93	0x30a04ebd	1.1663911e-09
94	0x2e3daa03	4.3124625e-11
95	0xb1225413	-2.3621893e-09
96	0x2f534c0c	1.9217355e-10
97	0xb0defa16	-1.6223705e-09
98	0x2fe5cf00	4.180194e-10
99	0xafa0aa53	-2.9224853e-10
100	0xafcf340f	-3.769007e-10
101	0xaf1d7fcf	-1.4324474e-10
102	0x30a30399	1.1860833e-09
103	0xaf176564	-1.3769391e-10
104	0x2fc34e03	3.5525724e-10
105	0x2f69e9cc	2.1274288e-10
106	0xb1000f8a	-1.8635284e-09
107	0xaf6989ea	-2.1240223e-10
108	0xb0c2f95e	-1.4186232e-09
109	0x311264fd	2.1303201e-09
110	0xb0611aa7	-8.18924e-10
111	0x30270e65	6.07747e-10
112	0x315d4af3	3.2202336e-09
113	0x3040e992	7.0181116e-10
114	0x3109937f	2.0019966e-09
115	0x2fde2c24	4.0412929e-10
116	0xaea55a64	-7.519388e-11
117	0xb0f93421	-1.813195e-09
118	0xaefec7b9	-1.15860606e-10
119	0x2e51180a	4.754245e-11
120	0xaf933ba2	-2.6781516e-10
121	0xafe937a4	-4.2421988e-10
122	0xb064f56e	-8.3294693e-10
123	0x2f0f590d	1.3037411e-10
124	0xafa1aa19	-2.940659e-10
125	0x30f53836	1.7842072e-09
126	0x2f8a1267	2.511513e-10
127	0xb0c73644	-1.4494579e-09
128	0x30c32b3a	1.4200403e-09
129	0x30d08d81	1.517421e-09
130	0x2fe26ab3	4.1184975e-10
131	0xb0ab8886	-1.248069e-09
132	0xb071d4cf	-8.797771e-10
133	0x306ad0f4	8.5425644e-10
134	0xb0a34e59	-1.1882079e-09
135	0x30fd18fd	1.8415275e-09
136	0x2f94a8b6	2.704092e-10
137	0xaf75e4e5	-2.236394e-10
138	0xb02a9426	-6.205617e-10
139	0xaf0b5297	-1.2671318e-10
140	0x30b07ad1	1.2840592e-09
141	0xb024b03d	-5.99133e-10
142	0xb0ed9a0d	-1.7287803e-09
143	0xb0d6d718	-1.5631683e-09
144	0xb0050b18	-4.8400883e-10
145	0x30c38a80	1.4227481e-09
146	0xaf64d0bf	-2.0810641e-10
147	0xafee5a5b	-4.335615e-10
148	0xb1017809	-1.8840203e-09
149	0xae97ec1d	-6.908627e-11
150	0xaed1201e	-9.509925e-11
151	0xb0af92e9	-1.277468e-09
152	0x303937a7	6.7381695e-10
153	0xb0d31be5	-1.5360199e-09
154	0x30626aa5	8.236987e-10
155	0x30e82415	1.6890477e-09
156	0x30ae7bb5	1.2695326e-09
157	0xb005f735	-4.873642e-10
158	0xb018f8ab	-5.5650656e-10
159	0xafb74553	-3.3336764e-10
160	0xb07d72a2	-9.2203767e-10
161	0xaf74ff7c	-2.2282437e-10
162	0xb002efe1	-4.7634613e-10
163	0x312410a1	2.3874593e-09
164	0xacd65461	-6.0916138e-12
165	0x30a6d152	1.2137582e-09
166	0x2feef312	4.346466e-10
167	0x3037da75	6.688546e-10
168	0x311f55ed	2.3186388e-09
169	0xb0fe7fab	-1.8517218e-09
170	0xaf1f19a8	-1.447008e-10
171	0xb0986332	-1.1087649e-09
172	0xb0ce7f19	-1.5024596e-09
173	0x309e6f57	1.1527658e-09
174	0xb113a659	-2.1485873e-09
175	0xb00f1f2d	-5.20674e-10
176	0x301776ad	5.510213e-10
177	0x302d1204	6.2962635e-10
178	0xb09f7cd8	-1.1604255e-09
179	0xafa7012f	-3.0377964e-10
180	0xb096109d	-1.0918658e-09
181	0x308dfebf	1.0331503e-09
182	0x305e2c18	8.082579e-10
183	0xafce26fa	-3.7498876e-10
184	0xb05398f6	-7.6978723e-10
185	0xb0209553	-5.8419863e-10
186	0x30da8ed9	1.5902187e-09
187	0x2e9fc63e	7.265698e-11
188	0x3018fd73	5.565745e-10
189	0xaf32d859	-1.6265868e-10
190	0xaf1fbfed	-1.4529151e-10
191	0x2ffb17a2	4.5673426e-10
192	0x30182f92	5.536488e-10
193	0xaf3318cd	-1.6288766e-10
194	0xaf08658b	-1.2405203e-10
195	0x30755576	8.925193e-10
196	0x30329324	6.496512e-10
197	0xae29e004	-3.8625117e-11
198	0xb086f94e	-9.82064e-10
199	0xb031c470	-6.467138e-10
200	0x2eb9706b	8.4327954e-11
201	0x30c803cd	1.4552995e-09
202	0xb10451ad	-1.9254955e-09
203	0x30230b0d	5.931476e-10
204	0xb00bb5f9	-5.0826504e-10
205	0xb094c5b7	-1.0824611e-09
206	0xb000defb	-4.6883003e-10
207	0xafc859ed	-3.6443684e-10
208	0xb0a5b847	-1.2057705e-09
209	0xad4197a4	-1.1004451e-11
210	0x30039081	4.7862875e-10
211	0xaf6fcd40	-2.1809843e-10
212	0xb03cd741	-6.8699896e-10
213	0x2fd0849e	3.792921e-10
214	0x2fe43516	4.1510678e-10
215	0x308188fb	9.424918e-10
216	0xb050b684	-7.592933e-10
217	0xb08c4d50	-1.0208314e-09
218	0x310d95ca	2.0603346e-09
219	0xb0441f7a	-7.1349116e-10
220	0xb13920e5	-2.6939742e-09
221	0xaf815bec	-2.3530278e-10
222	0xb108fe12	-1.9935027e-09
223	0xb096527e	-1.0937382e-09
224	0x3051eb6b	7.6368306e-10
225	0x30f61bb9	1.7906735e-09
226	0xb0440dd9	-7.1324063e-10
227	0xb05ccab1	-8.0323576e-10
228	0xb0055eca	-4.851982e-10
229	0x3002c493	4.7573073e-10
230	0x3101a009	1.886294e-09
231	0x308f8fe2	1.0445513e-09
232	0xb02f0b24	-6.368046e-10
233	0x3086d3a5	9.809936e-10
234	0x3013c580	5.3758953e-10
235	0x2fb98671	3.374683e-10
236	0xb105171b	-1.9367181e-09
237	0xb0dc9fc0	-1.605251e-09
238	0x2ffe09f6	4.6209409e-10
239	0x30c9ac7d	1.4673699e-09
240	0xb030d888	-6.4336136e-10
241	0xaf52b9a7	-1.9165346e-10
242	0x3045c28d	7.1944656e-10
243	0x30cb1903	1.4777303e-09
244	0x2fc7a389	3.6314088e-10
245	0xaf9d8553	-2.8652866e-10
246	0x303a4019	6.7757494e-10
247	0xb0add321	-1.2647413e-09
248	0x3056a1b7	7.8082557e-10
249	0xb0f4f01e	-1.7821582e-09
250	0x30c22d39	1.4128211e-09
251	0xb05a6ea7	-7.9465184e-10
252	0x2fa1eb38	2.9452862e-10
253	0x2fc1995e	3.521547e-10
254	0xb1247841	-2.3933497e-09
255	0x2f29e29f	1.5450972e-10

encoder.4.weight f4 [256]
0	0x3f7fc6f0	0.9991293
1	0x3f8000c5	1.0000235
2	0x3f7fac7c	0.99872565
3	0x3f8022e4	1.0010648
4	0x3f8006d3	1.0002083
5	0x3f807452	1.0035498
6	0x3f8005b6	1.0001743
7	0x3f7eb6c3	0.9949762
8	0x3f7ef9dc	0.99600005
9	0x3f7feebf	0.9997367
10	0x3f7f773d	0.9979132
11	0x3f7fd528	0.99934626
12	0x3f802ada	1.0013077
13	0x3f7f11c3	0.9963648
14	0x3f802db9	1.0013953
15	0x3f7f1749	0.99644905
16	0x3f801434	1.0006166
17	0x3f8010df	1.0005149
18	0x3f7e706b	0.99390286
19	0x3f7ed6aa	0.995463
20	0x3f7f1da1	0.99654585
21	0x3f80044e	1.0001314
22	0x3f7f5fde	0.99755657
23	0x3f800134	1.0000367
24	0x3f7f6dd6	0.9977697
25	0x3f801ada	1.0008194
26	0x3f7f3a83	0.99698657
27	0x3f7f0849	0.9962202
28	0x3f7de0ca	0.99171126
29	0x3f7f544c	0.99738
30	0x3f7fe5f4	0.99960256
31	0x3f80304a	1.0014737
32	0x3f7fe777	0.9996256
33	0x3f8009ff	1.000305
34	0x3f7f2aba	0.9967457
35	0x3f7f0834	0.9962189
36	0x3f800a53	1.0003151
37	0x3f7e44cd	0.9932373
38	0x3f7ed244	0.9953959
39	0x3f7ed0c6	0.99537313
40	0x3f7e1b3d	0.9926031
41	0x3f7f9b73	0.9984657
42	0x3f7fd710	0.99937534
43	0x3f7e1921	0.99257094
44	0x3f7f3c64	0.99701524
45	0x3f7e0e62	0.99240696
46	0x3f7f3673	0.9969246
47	0x3f7ef9dc	0.99600005
48	0x3f8003a7	1.0001115
49	0x3f7e3d93	0.99312705
50	0x3f80063c	1.0001903
51	0x3f80c4b1	1.0060025
52	0x3f801e99	1.0009338
53	0x3f7e4cde	0.9933604
54	0x3f7edc50	0.9955492
55	0x3f801f20	1.0009499
56	0x3f7e8fbf	0.9943809
57	0x3f7ec6c6	0.99522054
58	0x3f7fbb0a	0.99894774
59	0x3f7f2f2a	0.9968134
60	0x3f801851	1.0007421
61	0x3f7f8ff9	0.9982906
62	0x3f7f9371	0.9983435
63	0x3f7ef168	0.99587107
64	0x3f7f8a22	0.9982015
65	0x3f7e1cd9	0.9926277
66	0x3f7fa34a	0.99858534
67	0x3f7fe32a	0.99956
68	0x3f7f7f25	0.9980338
69	0x3f802fc1	1.0014573
70	0x3f7db9f7	0.99111885
71	0x3f7f119e	0.99636257
72	0x3f7f887f	0.9981765
73	0x3f7fc0f0	0.99903774
74	0x3f7e8846	0.99426687
75	0x3f7f9a79	0.9984508
76	0x3f7f6b39	0.99772984
77	0x3f7f25ea	0.9966723
78	0x3f7df6d0	0.9920473
79	0x3f7f8d2a	0.99824774
80	0x3f7f8368	0.99809885
81	0x3f7df60d	0.9920357
82	0x3f7e207c	0.9926832
83	0x3f7f262a	0.9966761
84	0x3f7f69f7	0.99771065
85	0x3f7f79cc	0.9979522
86	0x3f7fe35e	0.9995631
87	0x3f7f1cf3	0.9965355
88	0x3f804673	1.0021499
89	0x3f7f0e13	0.9963085
90	0x3f7ffa87	0.9999165
91	0x3f801716	1.0007045
92	0x3f7f9604	0.9983828
93	0x3f7ed22d	0.9953945
94	0x3f800085	1.0000159
95	0x3f7da8ff	0.9908599
96	0x3f802927	1.0012559
97	0x3f7e1c1c	0.9926164
98	0x3f7f0f7a	0.9963299
99	0x3f802b5b	1.0013231
100	0x3f8024ab	1.001119
101	0x3f7d5296	0.9895414
102	0x3f7e89d8	0.9942908
103	0x3f7ee7f3	0.99572676
104	0x3f7fcb3a	0.99919474
105	0x3f7f7058	0.997808
106	0x3f7febba	0.99969065
107	0x3f7ddfa8	0.991694
108	0x3f805064	1.0024533
109	0x3f806847	1.0031823
110	0x3f7f057a	0.9961773
111	0x3f7e30ee	0.9929341
112	0x3f8059d4	1.0027413
113	0x3f7fa4bd	0.99860746
114	0x3f802a9f	1.0013007
115	0x3f7eee0f	0.99582
116	0x3f7e6dd2	0.9938632
117	0x3f7efc5f	0.9960384
118	0x3f804081	1.0019685
119	0x3f7f2d09	0.99678093
120	0x3f7d6f28	0.98997736
121	0x3f7e830d	0.9941872
122	0x3f7f729e	0.99784267
123	0x3f7f63a2	0.997614
124	0x3f7d235e	0.9888209
125	0x3f800946	1.000283
126	0x3f7fe780	0.99962616
127	0x3f7f5625	0.9974082
128	0x3f7e9943	0.9945261
129	0x3f7e8481	0.99420935
130	0x3f7f94ba	0.99836314
131	0x3f7f1fd0	0.9965792
132	0x3f7eb02a	0.99487555
133	0x3f7cdec4	0.98777413
134	0x3f800c5e	1.0003774
135	0x3f7f11f6	0.9963678
136	0x3f7ee312	0.9956523
137	0x3f7ecebf	0.9953422
138	0x3f7f91a7	0.9983162
139	0x3f7f2119	0.9965988
140	0x3f7f64e7	0.9976334
141	0x3f7eb5bf	0.9949607
142	0x3f7f58f1	0.9974509
143	0x3f801f14	1.0009484
144	0x3f7f5f64	0.9975493
145	0x3f80119e	1.0005376
146	0x3f7e67d6	0.9937719
147	0x3f7ebc4f	0.99506086
148	0x3f80102d	1.0004936
149	0x3f7f4968	0.99721384
150	0x3f7fccba	0.9992176
151	0x3f7e6599	0.99373776
152	0x3f800250	1.0000706
153	0x3f7fb383	0.9988329
154	0x3f7e705f	0.99390215
155	0x3f7fce83	0.99924487
156	0x3f804b59	1.0022994
157	0x3f7e4309	0.9932104
158	0x3f7e0b8d	0.99236375
159	0x3f7f5536	0.99739397
160	0x3f7e84c3	0.9942133
161	0x3f7f3025	0.9968284
162	0x3f803838	1.0017157
163	0x3f7fecf7	0.99970955
164	0x3f7f4f65	0.9973052
165	0x3f7f5d07	0.99751323
166	0x3f7ffe47	0.9999737
167	0x3f802c89	1.0013591
168	0x3f800e2e	1.0004327
169	0x3f804d4a	1.0023587
170	0x3f8006b6	1.0002048
171	0x3f80040f	1.0001239
172	0x3f7f6644	0.9976542
173	0x3f7f83a4	0.9981024
174	0x3f7daf55	0.9909566
175	0x3f7ef4ba	0.99592173
176	0x3f805768	1.0026674
177	0x3f802fa4	1.0014539
178	0x3f7fb059	0.9987846
179	0x3f7e2233	0.99270934
180	0x3f7df5bc	0.99203086
181	0x3f7f18ca	0.996472
182	0x3f800ded	1.000425
183	0x3f7e9d8a	0.99459136
184	0x3f7fcf71	0.99925905
185	0x3f806665	1.0031248
186	0x3f7f2f58	0.99681616
187	0x3f7ded46	0.99190176
188	0x3f7ffd4c	0.99995875
189	0x3f805f5e	1.0029104
190	0x3f7eefd6	0.9958471
191	0x3f800861	1.0002557
192	0x3f7e99e5	0.99453574
193	0x3f7f27ca	0.9967009
194	0x3f7f076e	0.9962071
195	0x3f7f1bbd	0.996517
196	0x3f7e94df	0.9944591
197	0x3f7e6ad5	0.9938176
198	0x3f7e154f	0.99251264
199	0x3f7fbd4d	0.99898225
200	0x3f7f4559	0.9971519
201	0x3f7fbbd3	0.9989597
202	0x3f7f75ea	0.997893
203	0x3f7f531b	0.99736184
204	0x3f7f679c	0.9976747
205	0x3f8018fa	1.0007622
206	0x3f805336	1.0025394
207	0x3f7f8115	0.9980634
208	0x3f7fa633	0.99862975
209	0x3f7f0a9e	0.99625576
210	0x3f8008f5	1.0002733
211	0x3f7f49cc	0.9972198
212	0x3f802699	1.0011779
213	0x3f7e6daa	0.99386084
214	0x3f7de2c3	0.99174136
215	0x3f7e02d3	0.9922306
216	0x3f7e6bc3	0.9938318
217	0x3f7e6e09	0.9938665
218	0x3f804359	1.0020553
219	0x3f80179c	1.0007205
220	0x3f7ffe4d	0.9999741
221	0x3f7fd1b1	0.9992934
222	0x3f7f83a5	0.9981025
223	0x3f7f7339	0.9978519
224	0x3f7e7179	0.99391896
225	0x3f7f6d9f	0.99776644
226	0x3f80455f	1.002117
227	0x3f7d9300	0.9905243
228	0x3f7ed57a	0.9954449
229	0x3f802764	1.0012021
230	0x3f8014c2	1.0006335
231	0x3f80131b	1.000583
232	0x3f801beb	1.000852
233	0x3f8029db	1.0012773
234	0x3f7ef53a	0.99592936
235	0x3f7e0277	0.9922251
236	0x3f805bea	1.002805
237	0x3f7f7ddf	0.9980144
238	0x3f7ef6ae	0.99595153
239	0x3f8017f8	1.0007315
240	0x3f805779	1.0026695
241	0x3f7fdf53	0.9995014
242	0x3f7f66ee	0.99766433
243	0x3f7e0ff7	0.9924311
244	0x3f7ef3c0	0.99590683
245	0x3f7ef606	0.9959415
246	0x3f7fce22	0.9992391
247	0x3f80465b	1.0021471
248	0x3f7e1661	0.992529
249	0x3f7eeaa1	0.99576765
250	0x3f7ef333	0.9958984
251	0x3f7f35b1	0.996913
252	0x3f7e1898	0.9925628
253	0x3f8007ea	1.0002415
254	0x3f7f5cf9	0.9975124
255	0x3f7f4993	0.9972164
